api/modelo/best_pareto_lstm.pt (torch, 800659 bytes, 9 tensors)

lstm.weight_ih_l0 f4 [512, 1]
0	0x3ddbde9b	0.10735818
1	0x3dede4f2	0.116159335
2	0xbd1fbbaf	-0.03899735
3	0x3dec4962	0.11537434
4	0xbbe7e04e	-0.0070762997
5	0x3db78729	0.08961327
6	0x3da8ef60	0.08248782
7	0x3d60cbe2	0.054881938
8	0x3d72de57	0.05929407
9	0xbd0276c8	-0.03185156
10	0x3dba20ea	0.09088309
11	0x3cde0610	0.0271025
12	0x3d992f04	0.07479671
13	0x3d17ce15	0.03706177
14	0x3dce56d6	0.100751564
15	0x3d9f92b6	0.07791655
16	0x3d68afff	0.056808468
17	0x3d6545d2	0.05597479
18	0x3d1b9ae4	0.037989512
19	0x3cecb39f	0.028894244
20	0x3c883907	0.016628755
21	0x3cab80ee	0.020935502
22	0x3c575960	0.013143867
23	0x3e2099d2	0.15683678
24	0xbd8c039b	-0.06836625
25	0x3d3b4f45	0.045729894
26	0xbd145fde	-0.03622424
27	0x3d5781f1	0.052614156
28	0x3d74f2cb	0.059801858
29	0x3de5b152	0.11215462
30	0x3e0decf1	0.13859917
31	0xbb9477e1	-0.0045308922
32	0x3ddbdd48	0.107355654
33	0xbc07f979	-0.008299225
34	0x3bc24d50	0.0059296265
35	0x3d9b6ccc	0.07589111
36	0x3db1a7e4	0.08674601
37	0x3e09d202	0.13459018
38	0x3dbc273b	0.0918717
39	0x3cefcf06	0.029273521
40	0x3da6b052	0.08139099
41	0xbd7719ea	-0.060327448
42	0x3dfd9ea0	0.12383771
43	0x3e2bcf4b	0.16778295
44	0x3d5dfca0	0.054196
45	0xbd55e495	-0.052219946
46	0x3de642bc	0.11243197
47	0x3dbe46f9	0.09290881
48	0x3e20c62f	0.15700601
49	0x3c1e5066	0.009662723
50	0x3b87a267	0.004139233
51	0x3d042d00	0.032269478
52	0xbd025554	-0.031819656
53	0x3c524f5a	0.012836302
54	0x3db2ece0	0.087365866
55	0x3dae865f	0.08521723
56	0x3db93f0e	0.0904523
57	0xbd097894	-0.033562258
58	0x3dfdd54d	0.123941995
59	0x3d13c7c9	0.0360792
60	0x3da5de85	0.08099083
61	0x3d1f287e	0.038856976
62	0x3d7b4de6	0.061353587
63	0x3cb28a54	0.021794476
64	0xbc536e01	-0.012904645
65	0x3c5c9bda	0.013464892
66	0x3e005f02	0.12536243
67	0x3dddfca1	0.10839201
68	0xbd09f180	-0.033677578
69	0x3cd335bd	0.02578246
70	0x3dace12a	0.08441384
71	0x3d99e476	0.075142786
72	0x3e34f51a	0.17671624
73	0xbdd9d176	-0.10635655
74	0xbd7bee5c	-0.061506614
75	0xbb1e5cfa	-0.0024164305
76	0x3c1007c9	0.008790919
77	0x3dc55074	0.09634486
78	0x3dbada8e	0.09123717
79	0x3dac510b	0.08413895
80	0x3bc4e094	0.006008217
81	0xbcaf01a7	-0.021363093
82	0x3db47af5	0.08812515
83	0xbdb1a149	-0.08673341
84	0x3d73acf4	0.059491113
85	0x3c382a4c	0.011240553
86	0x3dd5ca74	0.104390055
87	0xbcb7d0ab	-0.022438368
88	0x3b48c16a	0.0030632862
89	0x3d633ef3	0.055479955
90	0x3dc239f3	0.09483709
91	0x3b1d5b34	0.002401066
92	0x3db90451	0.090340264
93	0x3c088b16	0.008333942
94	0xbd86084e	-0.06544553
95	0x3ce56aea	0.028005082
96	0x3e2b559a	0.16731873
97	0x3b9eb7b8	0.0048436783
98	0x3bc8114d	0.006105578
99	0xbc5b209c	-0.013374474
100	0x3d2b8181	0.04187155
101	0x3b852ca1	0.004064158
102	0x3d33517f	0.043778893
103	0xbcacefcd	-0.02111044
104	0x3d8aea31	0.0678295
105	0x3d847237	0.06467097
106	0x3ced59b7	0.028973443
107	0xbb2fbf34	-0.0026816847
108	0x3c0240f2	0.0079500545
109	0x3d3a92f7	0.045550313
110	0x3e620f8c	0.22076243
111	0x3de25725	0.11051778
112	0x3d8e41d6	0.06946151
113	0xbd9ddf54	-0.07708612
114	0xbcb8763f	-0.022517322
115	0x3bf4bcf9	0.0074688164
116	0x3c37e5da	0.0112242345
117	0xbd35d3b4	-0.04439135
118	0xbb70e59e	-0.0036757956
119	0xbba712c0	-0.0050986707
120	0xbd33168a	-0.043722667
121	0x3da348e4	0.07972887
122	0x3de4af9c	0.11166307
123	0xbc23fa73	-0.010008442
124	0x3d81f808	0.06346136
125	0xbbbafac9	-0.0057061655
126	0xbd5df8eb	-0.054192465
127	0xbd656985	-0.056008834
128	0x3dcb7b3f	0.09935617
129	0xbbb53634	-0.005530143
130	0xbd2a5d4e	-0.04159289
131	0x3c254acb	0.010088633
132	0xbddc5422	-0.107582346
133	0x3db8a222	0.090152994
134	0x3cdc84d4	0.026918806
135	0xbd08fb58	-0.033442825
136	0xbdc21009	-0.09475715
137	0xbde14937	-0.11000293
138	0x3cdce163	0.026962942
139	0xbcb40f79	-0.021980034
140	0x3d2e91b3	0.04261942
141	0xbd9c502b	-0.07632478
142	0x3ddefec7	0.10888439
143	0xbcf191b1	-0.029488416
144	0xbd27b6bc	-0.040945753
145	0x3cbc5774	0.02299092
146	0x3dac9eb0	0.08428705
147	0x3d9eb59e	0.077494845
148	0x3dd607d8	0.10450715
149	0xbdd313b0	-0.103064895
150	0xbd31a5ed	-0.04337113
151	0xbe029fc3	-0.12756257
152	0xbd627cb3	-0.055294704
153	0xbdd78df6	-0.10525124
154	0x3d3fd7b8	0.046836585
155	0xbd15f07e	-0.036606304
156	0x3d832508	0.064035475
157	0xbda68416	-0.08130662
158	0x3d855d2c	0.06511912
159	0xbd047d80	-0.03234625
160	0x3dbb0d69	0.09133417
161	0xbc8b7a0d	-0.017025972
162	0xbcdb65af	-0.026781885
163	0xbd9464d2	-0.072457924
164	0x3dadaf6b	0.08480724
165	0x3cd0202f	0.025405971
166	0xbd93556a	-0.07194026
167	0x3dbeda9b	0.093190394
168	0xbd3dc8fe	-0.04633426
169	0xbddcfd75	-0.107905306
170	0xbd46456c	-0.04840605
171	0xbd449e35	-0.04800244
172	0x3d558a8a	0.052134074
173	0xbd76f142	-0.060288675
174	0xbcd1e838	-0.025623426
175	0x3c0ad16e	0.0084727835
176	0xbe49c4af	-0.19703935
177	0x3d70ec9c	0.0588194
178	0x3d386b5f	0.045024272
179	0xbd9e3604	-0.077251464
180	0xbb9fd2ab	-0.0048774085
181	0xbc002214	-0.007820625
182	0x3d346aed	0.044047285
183	0xbba6e88f	-0.005093641
184	0x3d96975f	0.073530905
185	0x3c534af2	0.012896286
186	0x3d8aa41f	0.06769585
187	0xbdb2658c	-0.08710775
188	0xbb5c6c91	-0.0033634047
189	0xbc9790fc	-0.018501751
190	0x3a326bc8	0.0006806222
191	0x3b92c7ff	0.004479408
192	0x3c26bc0f	0.010176673
193	0x3d90ed2a	0.070764855
194	0x3c94348d	0.018091464
195	0xbe1a5459	-0.15071239
196	0xbd7e4114	-0.062073782
197	0xbd16b398	-0.036792368
198	0x3c8248ff	0.015903948
199	0x3d527d29	0.051388893
200	0xbd9d3bde	-0.076774344
201	0xbd9fb87a	-0.07798858
202	0x3dac0328	0.083990395
203	0x3bb4cf41	0.0055178707
204	0xbdeb1207	-0.11478048
205	0xbccc5e7e	-0.024947401
206	0xbe15f254	-0.14643222
207	0xbdb1db08	-0.08684355
208	0xbd4e7ffb	-0.05041502
209	0x3d70712b	0.058701675
210	0x3d624403	0.055240642
211	0xbbe3cdf8	-0.0069520436
212	0xbde1951c	-0.110147685
213	0xbd38f732	-0.04515762
214	0x3ca518cd	0.020153427
215	0xbce40f0c	-0.027839206
216	0xbda93bef	-0.082633846
217	0xbc03d6f2	-0.008046852
218	0x3d85096e	0.06495939
219	0xbca574d7	-0.020197315
220	0xbd225a88	-0.03963712
221	0x3c627a50	0.013823107
222	0xbd2b4d23	-0.04182161
223	0x3cbe8f53	0.023261702
224	0xbda81c30	-0.08208501
225	0x3d9c8e91	0.0764438
226	0x3d6808cd	0.056649018
227	0x3d57c6ec	0.05267994
228	0xbd1ef9bb	-0.03881238
229	0xbe000268	-0.12500918
230	0xbd63b776	-0.055594884
231	0x3db6a5cb	0.08918341
232	0x3d2f78ce	0.042839818
233	0x3c137bc5	0.009001677
234	0x3d970175	0.07373325
235	0x3d36ee48	0.044660836
236	0xbe107d10	-0.14110208
237	0xbd4a1954	-0.04934056
238	0xbe06e474	-0.13173085
239	0xbda3e053	-0.08001771
240	0x3d7477a3	0.059684407
241	0xbda286b0	-0.07935846
242	0xbbc6763b	-0.0060565746
243	0xbd0e14e4	-0.03468789
244	0xbcf8b0f0	-0.030357808
245	0xbd428cab	-0.047497433
246	0xbd5137dc	-0.051078662
247	0x3d1269ee	0.035745554
248	0xbd8c9baa	-0.06865628
249	0x3d36ff9c	0.04467736
250	0xbcf1c374	-0.029512145
251	0xbd8274f3	-0.063699625
252	0xba9a05c1	-0.0011750982
253	0xbccaaf7e	-0.024741884
254	0xbd4385ab	-0.047734898
255	0xbde93d0c	-0.11388597

lstm.weight_hh_l0 f4 [512, 128]
0	0x3cecb5bb	0.02889525
1	0xbd70435a	-0.05865798
2	0xbd5bb5ef	-0.053640302
3	0xbe2013a6	-0.15632495
4	0x3d7c9c68	0.061672598
5	0xbdb3ea39	-0.08784909
6	0x3d67c010	0.05657965
7	0xbb0fb7d9	-0.002192965
8	0x3d5f7017	0.054550257
9	0x3d6abb59	0.057307575
10	0xbc1a5ef2	-0.009422051
11	0x3d38f001	0.04515076
12	0x3d86b692	0.06577791
13	0xbd98b06b	-0.07455524
14	0x3d071c6b	0.032986086
15	0x3c5c6a65	0.013453101
16	0x3dbb909d	0.09158442
17	0x3b1da7ac	0.002405624
18	0x3cc72d35	0.024313549
19	0xbd3460ab	-0.044037502
20	0xbc823cd8	-0.015898153
21	0x3b2f87e3	0.0026783876
22	0x3cb8e917	0.022572083
23	0xbcf93715	-0.030421773
24	0x3ae63236	0.0017562571
25	0xba83ba95	-0.0010050113
26	0xbd6ab8c1	-0.0573051
27	0x3db925d1	0.09040416
28	0xbd1e1217	-0.03859147
29	0xbb1615d5	-0.0022901196
30	0xbce9cf53	-0.028541243
31	0x3c4fba08	0.012678631
32	0x3db0c7a0	0.086318254
33	0xbc844987	-0.016148342
34	0x3dbeaf56	0.093107864
35	0x3d8e69ba	0.069537595
36	0x3d8321f9	0.06402964
37	0xbd144738	-0.036200732
38	0xbceba7f4	-0.02876661
39	0x3d03d6f5	0.03218742
40	0xbc42fea5	-0.011901532
41	0x3df2f6c5	0.11863474
42	0xbbb96486	-0.0056577353
43	0xbcbd98fc	-0.023144238
44	0x3d0f19ae	0.0349366
45	0x3d1d4fd7	0.03840622
46	0x3d5b5ac5	0.05355336
47	0x3db99ad3	0.090627335
48	0x3d741be7	0.059596922
49	0x3d9cdb07	0.07658964
50	0x39c23d5c	0.0003704828
51	0xbda22c58	-0.07918614
52	0xbce1a467	-0.027544213
53	0xbcfd5b07	-0.030927194
54	0xbd9503f6	-0.07276146
55	0xbd1fcb5a	-0.03901229
56	0xbdab68da	-0.08369608
57	0xbd85b592	-0.065287724
58	0xbd4ba55a	-0.04971824
59	0xbdaa94e6	-0.083291814
60	0xbdada868	-0.084793866
61	0x3caed0ba	0.021339763
62	0x3da9e88c	0.08296308
63	0xbc8b971e	-0.017039832
64	0xbd95ef89	-0.07321078
65	0x3d770e65	0.060316462
66	0xbd377592	-0.04478986
67	0xbd2b5346	-0.041827463
68	0x3ce5f281	0.028069736
69	0xbdb499c4	-0.08818391
70	0x3bd6155b	0.0065333075
71	0x3d87c597	0.06629484
72	0x3c83c110	0.01608327
73	0x3dfb7170	0.12277496
74	0xbd4e7892	-0.050407954
75	0xbd49b9e3	-0.04924954
76	0x3d02e190	0.031953394
77	0x3ca93335	0.0206543
78	0x3d3c9c8e	0.04604774
79	0x3da115ff	0.078655235
80	0xbd3105b5	-0.043218333
81	0x3aabb69b	0.0013100685
82	0xbd43a0fc	-0.04776095
83	0xbdf5961c	-0.11991522
84	0xbd78c021	-0.060730103
85	0xbd932583	-0.07184889
86	0x3d6dbcfb	0.058041554
87	0xbc518161	-0.012787194
88	0xbd662aa6	-0.056193016
89	0x3d50805e	0.05090367
90	0xbd9f5eb6	-0.077817366
91	0xbd093270	-0.033495367
92	0xbc80062e	-0.015627947
93	0xbd0e7872	-0.034782834
94	0xbd7702b1	-0.0603053
95	0xbc5e25d9	-0.013558828
96	0x3d903a8c	0.07042417
97	0x3db38ec1	0.087674625
98	0x3db05881	0.08610631
99	0xbd5bbd5a	-0.053647377
100	0xbd6f0e08	-0.05836299
101	0x3d9ca7d0	0.07649195
102	0x3d23a053	0.03994782
103	0x3b9a07b3	0.004700625
104	0x3d108017	0.035278406
105	0xbd698220	-0.057008862
106	0xbcd70e11	-0.026251825
107	0x3d9c711c	0.076387614
108	0xbd225528	-0.039631993
109	0xbbfd438f	-0.007729001
110	0xbd9607a4	-0.07325676
111	0xbd293e32	-0.04131908
112	0xbb83fb7b	-0.0040277815
113	0xbde6b36a	-0.11264689
114	0xbc3215db	-0.010869469
115	0x3d047f88	0.032348186
116	0xbdae9d3e	-0.08526085
117	0x3d0b9b67	0.03408375
118	0xbd4ab373	-0.049487542
119	0xbd2afed2	-0.04174692
120	0x3df84502	0.12122537
121	0x3d9ec497	0.0775234
122	0xbd23979b	-0.039939504
123	0xbd01a1c0	-0.031648397
124	0xbdae31a9	-0.08505566
125	0xbd2b9596	-0.041890703
126	0xbd7f8be5	-0.062389273
127	0xbcf934cb	-0.030420681
128	0x3d0b7b20	0.034052968
129	0xbda823ac	-0.08209929
130	0x3da185b4	0.0788683
131	0x3d7149e3	0.058908354
132	0xbda9efb0	-0.0829767
133	0xbd80bcc6	-0.06286006
134	0x3d1f98d2	0.0389641
135	0xbd0e4a2e	-0.034738712
136	0xbc8bf057	-0.017082376
137	0xbcd51655	-0.026011625
138	0x3d501757	0.05080351
139	0xbcec1977	-0.028820736
140	0x3d4d95e9	0.050191794
141	0xbb3e9567	-0.002908075
142	0x3d042c1c	0.03226863
143	0x3d612467	0.054966357
144	0xbc89fe70	-0.016844958
145	0xbd472453	-0.048618626
146	0xbc0e08cb	-0.008669089
147	0x3d4f69a3	0.050637852
148	0xbda4cee8	-0.08047277
149	0x3c9baf3a	0.019004453
150	0xbdaddb83	-0.08489134
151	0x3d35cf04	0.04438688
152	0x3d05c30a	0.032656707
153	0xbcb813a6	-0.022470307
154	0x3cac552d	0.021036709
155	0xbc0e8dc7	-0.008700795
156	0x3d2a2874	0.041542485
157	0xbdbdcfb7	-0.09268134
158	0xbd096313	-0.03354175
159	0x3d168a51	0.036753003
160	0x3dc43194	0.09579769
161	0x3d575235	0.052568633
162	0xbd90688f	-0.07051193
163	0x3d4f118d	0.050553847
164	0xbd117d7a	-0.035520054
165	0xbd0a21ff	-0.033723827
166	0xbd254fe3	-0.04035939
167	0xbce42e9e	-0.02785426
168	0x3d6ee586	0.05832436
169	0x3c2d54dd	0.010579315
170	0xbd92244b	-0.071358286
171	0x3c29c83a	0.010362679
172	0xbb7b9a73	-0.003839162
173	0x3da591ec	0.08084473
174	0xbdb849c1	-0.089984424
175	0xbd42203e	-0.04739403
176	0xbdb30182	-0.08740522
177	0xbd0e76b0	-0.034781158
178	0xbbac212e	-0.0052529788
179	0x3dc955cc	0.098308176
180	0x3c849460	0.016184032
181	0x3dae8e20	0.08523202
182	0x3ce82023	0.028335636
183	0x3d98f8d2	0.07469334
184	0x3d806bf6	0.06270592
185	0x3cf8126e	0.030282225
186	0xbd35da39	-0.044397566
187	0x3debfa14	0.11522308
188	0x3d7d19ab	0.061792057
189	0xbd2e3b3d	-0.042536963
190	0xbd61e44b	-0.055149358
191	0xbdd555bf	-0.104167454
192	0x3d330750	0.043708146
193	0xbda362ae	-0.07977806
194	0x3d38eac8	0.04514578
195	0x3d572c1d	0.052532304
196	0xbdceb81a	-0.10093708
197	0x3c83f670	0.016108721
198	0xbcceb6e4	-0.025233693
199	0x3ce290a3	0.027656859
200	0x3d400cba	0.046887137
201	0xbdb3d6e0	-0.087812185
202	0x3dc904e4	0.09815386
203	0x3da1b380	0.07895565
204	0x3d278403	0.04089738
205	0xbdc805b2	-0.09766711
206	0xbca406fb	-0.02002286
207	0xbd25b71a	-0.040457822
208	0xbd4ac005	-0.04949953
209	0x3d8a984b	0.06767329
210	0x3c4900ea	0.012268284
211	0x3d89d19e	0.067294344
212	0xbcfc3d52	-0.030790959
213	0x3c97201c	0.018447928
214	0x3c5e3321	0.013561995
215	0xbd5f5d14	-0.054532126
216	0xbdb915e7	-0.09037381
217	0xbd5400a8	-0.05175844
218	0x3dab2b74	0.083578974
219	0xbdc8d872	-0.09806909
220	0xbdbc4f3b	-0.091947995
221	0x3d442b46	0.04789283
222	0x3d8377d9	0.064193435
223	0x3db43f5d	0.08801148
224	0xbd771c4a	-0.060329713
225	0xbd44aa41	-0.04801393
226	0x3d4876e9	0.048941527
227	0x3deb369a	0.11485024
228	0x3d61e161	0.05514658
229	0xbc93452f	-0.017977325
230	0x3ce0ac51	0.027425917
231	0x3dd14c4d	0.10219631
232	0xbd8c2360	-0.06842685
233	0xbd42de1c	-0.0475751
234	0x3d6e2b5a	0.058146812
235	0xbd0eee53	-0.034895252
236	0xbcf104cc	-0.029421233
237	0x3dc6f693	0.09714999
238	0x3d2b2937	0.041787352
239	0x3cdd9f3e	0.027053472
240	0xbd44a204	-0.048006073
241	0x3c1623ee	0.00916384
242	0x3dc4a75b	0.09602233
243	0xbd1143c6	-0.035465024
244	0xbc7f11c7	-0.015568203
245	0x3c5e2285	0.013558035
246	0xbd792f95	-0.060836393
247	0x3da4d7e3	0.080489896
248	0xbd4ae1bf	-0.049531695
249	0x3b1f89e2	0.002434366
250	0xbcb80636	-0.0224639
251	0xbd59d635	-0.0531828
252	0xbda32ab3	-0.079671286
253	0x3d20fad9	0.039301727
254	0x3cb7d5a8	0.022440746
255	0xbdbcb1ea	-0.09213622

lstm.bias_ih_l0 f4 [512]
0	0x3d3d4d9a	0.046216585
1	0x3db55a08	0.08855063
2	0x3e0674ee	0.13130543
3	0xbdaea0a1	-0.08526731
4	0xbd830b92	-0.06398691
5	0x3d55306f	0.052048143
6	0xbc9b7baf	-0.018979875
7	0x3d79b013	0.060958933
8	0x3cf4e65c	0.029895
9	0x3c5aa8e7	0.0133459335
10	0xbd958e13	-0.07302489
11	0x3ce6f092	0.028190885
12	0x3d74e9dd	0.059793342
13	0xba8c0a67	-0.0010684252
14	0x3c726e8c	0.014796864
15	0x3ddccf4c	0.10781726
16	0x3c2c5dd2	0.010520415
17	0x3c6b5bd8	0.014365159
18	0x3d8cec0e	0.06880961
19	0xbd89df60	-0.067320585
20	0x3d0ea7a1	0.034827832
21	0x3b326cad	0.002722542
22	0x3c42bd81	0.011886002
23	0x3e4236c1	0.189662
24	0xbd3accc6	-0.045605443
25	0x3c2696ca	0.010167787
26	0xbcef11a7	-0.029183222
27	0x3ca49ff3	0.020095801
28	0xbd457ca5	-0.048214573
29	0x3e5e7987	0.21726047
30	0x3dcffcfb	0.10155674
31	0x3d1682c7	0.036745813
32	0x3dbf0fa3	0.09329154
33	0x3d8b3d21	0.06798769
34	0x3db36244	0.08758977
35	0xbd802462	-0.062569395
36	0xbd085457	-0.033283558
37	0x3b0bd59e	0.0021337043
38	0x3e086246	0.13318738
39	0x3d97ec36	0.074181005
40	0x3e15c501	0.14625932
41	0x3d52abcc	0.05143337
42	0x3dbbf6ce	0.09177934
43	0x3e0f9d08	0.14024746
44	0x3cd9e4ba	0.026598323
45	0xbcab06c5	-0.020877251
46	0x3b87f792	0.0041493857
47	0x3d78eff2	0.060775705
48	0x3ea69c37	0.32541057
49	0xbc956a84	-0.018239267
50	0x3e2e09d6	0.1699594
51	0x3d21949c	0.039448366
52	0xbd72f906	-0.05931952
53	0xbda0ec5d	-0.07857583
54	0x3dcb1a3c	0.09917113
55	0x3dd3ec42	0.10347797
56	0x3dbaf4e6	0.09128742
57	0xbd2e8c7d	-0.04261445
58	0x3d6ab297	0.057299223
59	0x3e27450c	0.16334933
60	0x3c3294c4	0.010899726
61	0x3c8c7e32	0.017150018
62	0x3d358959	0.044320438
63	0xbbbf68e0	-0.0058413595
64	0x3dbce0fd	0.092226006
65	0x3c78fab2	0.015196489
66	0x3dbbded6	0.09173362
67	0x3e94aa31	0.29036096
68	0x3dcf3441	0.101173885
69	0x3c095ed2	0.008384423
70	0x3d8d7a4a	0.069080904
71	0xbda792db	-0.08182307
72	0x3e18a2c3	0.14905839
73	0xbd5ee272	-0.054415174
74	0x3dad818f	0.08471977
75	0xbd06f513	-0.032948565
76	0x3db49847	0.08818107
77	0x3c44b0a6	0.012005007
78	0x3d06ad65	0.032880206
79	0x3dc254b2	0.094888106
80	0xbca3c441	-0.019991042
81	0x3ccb2ef4	0.024802662
82	0x3d9a15d8	0.075236976
83	0x3d57b745	0.052665014
84	0x3ca600d4	0.020264067
85	0x3c91bc66	0.01779003
86	0x3b5dcba3	0.00338433
87	0x3e0a348c	0.13496608
88	0x3d218776	0.039435826
89	0x3da5b598	0.08091277
90	0x3d001cca	0.031277455
91	0x3cbf92ae	0.023385372
92	0x3ce9fa5c	0.028561763
93	0xbca5fe84	-0.020262964
94	0xbd17aae1	-0.037028197
95	0xbd67146e	-0.056415968
96	0x3afe73d3	0.001941318
97	0xbc9aa5c7	-0.018877877
98	0x3ddaaca4	0.1067746
99	0x3d6ed0ce	0.0583046
100	0x3d98d7fe	0.07463072
101	0xbd0edb14	-0.034876898
102	0xbd26b8fe	-0.040703766
103	0x3cdbf1a4	0.026848622
104	0x3db9dc4c	0.090752214
105	0x3e45eabc	0.19327825
106	0x3d813738	0.0630936
107	0x3da3595c	0.07976028
108	0x3d982f67	0.07430916
109	0x3d532b59	0.05155501
110	0x3e485748	0.19564545
111	0x3df8bcd3	0.1214539
112	0x3daf3685	0.08555321
113	0x3da501d8	0.08056992
114	0x3ddacba9	0.10683376
115	0xbd2e0c52	-0.04249222
116	0xbd470cbe	-0.048596136
117	0xbd8c09d4	-0.06837812
118	0xbd287987	-0.041131523
119	0x3d875223	0.06607463
120	0xbd4afe9e	-0.049559228
121	0x3e315186	0.17316255
122	0x3d56ac54	0.05241044
123	0x3d951acd	0.072805025
124	0x3d426110	0.047455847
125	0x3d82dd13	0.06389823
126	0xbd98af49	-0.07455308
127	0x3d798dcc	0.060926244
128	0xbd67bec4	-0.056578413
129	0xbccd0bc0	-0.025030017
130	0xbd621592	-0.055196352
131	0xbd39170a	-0.045187987
132	0xbd9025d4	-0.07038465
133	0xbd9df066	-0.07711868
134	0xbdc8b45d	-0.098000266
135	0xbc9b6574	-0.018969275
136	0x3d44ac98	0.04801616
137	0xbd4fa45e	-0.050693862
138	0xbd52ec2b	-0.05149476
139	0x3d48957b	0.04897068
140	0x3d7af574	0.06126924
141	0x3d5f1007	0.054458644
142	0x3ceecf34	0.029151537
143	0xbcb078b6	-0.021541934
144	0xbb732db4	-0.0037106099
145	0xbddafe91	-0.10693086
146	0xbd3cd4ff	-0.046101566
147	0x3cdea917	0.027180238
148	0xbd1570e5	-0.036484618
149	0xbd3737ec	-0.044731066
150	0x3ca2e838	0.019886121
151	0xbe070959	-0.1318716
152	0xbddb022f	-0.10693776
153	0xbdfbd419	-0.12296314
154	0xbe1f07c0	-0.155303
155	0xbd1ae2bf	-0.0378139
156	0xbc087cfa	-0.008330578
157	0xbe5b2fa3	-0.2140489
158	0x3ccbdd62	0.024885837
159	0xbdc31a62	-0.095265165
160	0x3d4011b1	0.04689187
161	0xbd64dd38	-0.055875033
162	0xbd5368f1	-0.05161375
163	0xbd01ca9d	-0.031687368
164	0xbdd81e62	-0.1055267
165	0xbd8e4a6a	-0.06947787
166	0xbe2dc235	-0.16968615
167	0xbd722fab	-0.05912749
168	0xbda7bbee	-0.081901416
169	0x3d69aaad	0.057047535
170	0xbc2efbc8	-0.0106801465
171	0xbcc74ea5	-0.024329493
172	0x3d54a6d3	0.05191691
173	0xbbae4b9f	-0.0053190733
174	0xbdeefd79	-0.1166944
175	0xbc4f1df8	-0.012641422
176	0xbda24b88	-0.07924563
177	0xbd89cf2b	-0.06728967
178	0xbd81ba1e	-0.06334327
179	0xbdb98137	-0.09057849
180	0xbdbe2ec8	-0.092862666
181	0x3c4cd9c1	0.012503088
182	0x3d8c8614	0.06861511
183	0xbde3938d	-0.111121275
184	0xbd998227	-0.07495528
185	0xbd6ac854	-0.057319954
186	0x3d38db29	0.045130882
187	0xbdd67eea	-0.10473426
188	0x3ba9bd63	0.0051800474
189	0xbd853c9f	-0.06505703
190	0xbdc276d6	-0.094953224
191	0xbdd511c9	-0.10403783
192	0xbce23460	-0.027612865
193	0xbdb7c90c	-0.089738935
194	0xbc02db2f	-0.007986828
195	0xbe89d4de	-0.26920217
196	0xbd64792c	-0.05577962
197	0xbdbe16f7	-0.09281724
198	0x3d403640	0.046926737
199	0x3bde639e	0.0067867776
200	0x3b0eac42	0.0021770154
201	0xbd11aa3f	-0.03556275
202	0xbc8384ea	-0.01605459
203	0xbc0be9c4	-0.008539621
204	0xbd759853	-0.05995972
205	0x3cee5d1c	0.029097132
206	0xbdb4401a	-0.08801289
207	0x3c72d75e	0.014821855
208	0xbdfb827f	-0.122807495
209	0x3d5da839	0.054115508
210	0xbdc8f1fe	-0.09811781
211	0x3d8d9382	0.069129005
212	0x3d28b9b0	0.04119271
213	0xbdd14d97	-0.10219877
214	0xbd85010a	-0.06494339
215	0x3b5e27e3	0.0033898286
216	0xbd063005	-0.03276064
217	0xbc8d83c0	-0.017274737
218	0xbd64b264	-0.05583419
219	0x3d64ad5c	0.05582939
220	0x3d83e35b	0.06439849
221	0xbdb3f78f	-0.087874524
222	0x3d8027fb	0.06257626
223	0x3d762993	0.060098242
224	0x3c6796f7	0.014135114
225	0xbdc0a075	-0.09405605
226	0xbd13f828	-0.036125332
227	0xbd905b8b	-0.070487104
228	0xbd2cf3f7	-0.04222485
229	0x3c1fbdee	0.009749873
230	0x3d6a8d7d	0.05726384
231	0x3d8ba33e	0.06818245
232	0xbd9de357	-0.07709377
233	0xbe0a12cf	-0.13483737
234	0xbdf4f187	-0.1196013
235	0x3b74becd	0.0037345171
236	0xbde0cae6	-0.109762
237	0xbdec1387	-0.11527162
238	0xbe1626bd	-0.14663215
239	0xbe02b1cf	-0.12763141
240	0x3d7951fd	0.060869206
241	0xbc571acd	-0.013128948
242	0xbd7ad4d8	-0.06123814
243	0x3bad5043	0.005289109
244	0xbdc5a32c	-0.09650263
245	0xbd6b9076	-0.057510816
246	0xbd67ba69	-0.05657426
247	0xbc88bf3b	-0.016692748
248	0xbd70a586	-0.058751605
249	0xbe25144e	-0.16121027
250	0xbe0cfd2d	-0.13768454
251	0xba815f4f	-0.0009870323
252	0xbc4273f5	-0.011868467
253	0xbd191856	-0.037376724
254	0xbd31f8c9	-0.04345015
255	0x3b189ca2	0.002328672

lstm.bias_hh_l0 f4 [512]
0	0x3dcdd66f	0.100506656
1	0xbd6b0c82	-0.057384975
2	0x3d0a74f4	0.03380294
3	0x3d40defb	0.04708765
4	0xbba9ac74	-0.0051780287
5	0x3cde497e	0.027134653
6	0x3dbd4299	0.09241218
7	0x3b7159f1	0.003682729
8	0x3cee1348	0.029061928
9	0xbd56f297	-0.052477445
10	0xbd455fa6	-0.04818692
11	0xbda55810	-0.08073437
12	0x3d06b306	0.032885574
13	0x3d85038f	0.064948194
14	0x3d550f6b	0.052016657
15	0x3ddfaaa2	0.109212175
16	0xbc1072a1	-0.008816392
17	0x3d4a2802	0.04935456
18	0x3d24dd00	0.040249825
19	0xbd0fb545	-0.03508498
20	0x3cf25e20	0.029585898
21	0xbc64f95e	-0.013975469
22	0xbd5e9d52	-0.05434925
23	0x3e3cb76b	0.18429343
24	0xbc5801f6	-0.013184061
25	0x3df6f923	0.12059238
26	0xbd993b54	-0.07482019
27	0xbcef11bf	-0.029183267
28	0x3d8959f0	0.06706607
29	0x3eab043a	0.33401662
30	0x3d1491a1	0.036271695
31	0x3d67a5eb	0.056554716
32	0xbbf185b4	-0.007370675
33	0xbc4bc5d3	-0.012437302
34	0x3d990c92	0.07473101
35	0xbd9c06b5	-0.07618467
36	0x3c684ea4	0.014178906
37	0x3de4f53a	0.11179586
38	0x3d59fab2	0.053217597
39	0xbd919642	-0.071087375
40	0x3e129b06	0.14316949
41	0x3d9126b1	0.07087458
42	0x3afefb50	0.0019453559
43	0x3d56b343	0.05241705
44	0xbd94f361	-0.07272983
45	0x3d8769b2	0.06611957
46	0x3ccaf00a	0.024772663
47	0x3de9f7ce	0.11424218
48	0x3e97d89e	0.29657453
49	0x3ca63f04	0.02029372
50	0x3e2c0974	0.16800481
51	0xbd90765f	-0.070538275
52	0xbd6f0272	-0.05835194
53	0xbc902e2e	-0.017600145
54	0x3b81045b	0.003937287
55	0x3da8952c	0.08231577
56	0x3d4c4fc6	0.049880765
57	0xbcab2909	-0.02089359
58	0x3dc3abcf	0.09554254
59	0x3e461286	0.19343004
60	0xbd9755df	-0.073894255
61	0xbc479cb6	-0.012183359
62	0xbd403eee	-0.046935014
63	0x3c836e28	0.016043738
64	0x3cc2d808	0.023784652
65	0xbd8cf660	-0.0688293
66	0xbd598b5a	-0.05311141
67	0x3e8b6197	0.27222893
68	0xbcfedb28	-0.031110361
69	0x3d622f1e	0.055220716
70	0x3c87cf78	0.016578421
71	0xbcd492b0	-0.025948852
72	0xbc2782da	-0.010224069
73	0xbd1273a4	-0.035754815
74	0xbd096e29	-0.033552323
75	0x3d3e4f29	0.04646221
76	0x3da42e8c	0.080166906
77	0xbbc10d9e	-0.005891516
78	0x3c9fdcee	0.019514527
79	0x3d9aaf9d	0.07553027
80	0xbcabf802	-0.020992283
81	0x3b8f9327	0.0043815556
82	0x3d13cbc5	0.036083
83	0x3d8ccbec	0.068748325
84	0xbcf98c9f	-0.030462561
85	0xbce0194f	-0.027355818
86	0x3cd48c3d	0.025945777
87	0x3e06e1e9	0.13172115
88	0x3dbdb925	0.09263829
89	0xbda05ea8	-0.07830554
90	0xbad9815e	-0.001659434
91	0xbd8bf034	-0.068329245
92	0x3b09e7e8	0.0021042768
93	0x3d810849	0.063004084
94	0xbd479e18	-0.048734754
95	0x3d9f566e	0.07780157
96	0xbcf2922e	-0.02961072
97	0x3dcc22b7	0.09967559
98	0x3c9fa556	0.019488018
99	0xbd1da9f8	-0.038492173
100	0x3d2318dc	0.03981863
101	0xbd73b229	-0.05949608
102	0xbd6d05fe	-0.057867043
103	0xbd113bc1	-0.035457376
104	0xbd534a21	-0.051584367
105	0x3e8d0173	0.27540168
106	0x3cad9ae2	0.021192018
107	0xbd09f8bd	-0.03368448
108	0x3d97811d	0.07397673
109	0x3d1b7f86	0.037963413
110	0x3e67d65e	0.22640368
111	0x3dc9a639	0.098461576
112	0x3db3aabc	0.087727994
113	0x3cda0510	0.026613742
114	0x3c57a2bb	0.013161357
115	0xbc372c3d	-0.011179981
116	0x3d55b07a	0.052170254
117	0x3d096574	0.03354402
118	0xbca55c2a	-0.020185549
119	0x3d956439	0.072945066
120	0x3cca3df1	0.02468774
121	0x3d64df4c	0.055877015
122	0x3d05baf0	0.03264898
123	0x3d612e6b	0.05497591
124	0x3d74a88a	0.059731044
125	0x3d1d708d	0.038437415
126	0xbd3dd875	-0.046349008
127	0xbd7b0091	-0.061279837
128	0xbd72ac8d	-0.05924659
129	0xbddb0737	-0.106947355
130	0xbd95ef4a	-0.073210314
131	0xbce886c1	-0.028384568
132	0xbdd1cfc0	-0.10244703
133	0xbdda2a0f	-0.10652553
134	0xbc2b216f	-0.010444983
135	0xbb0d6fd7	-0.0021581554
136	0xbdce8078	-0.10083097
137	0xbd412a51	-0.047159497
138	0xbd001229	-0.03126732
139	0xb9222792	-0.00015464265
140	0x3c78b87b	0.015180702
141	0xbcc5dc6b	-0.024152955
142	0xbdb4d472	-0.08829583
143	0xbd15fbdc	-0.036617145
144	0xbd551bb7	-0.052028384
145	0x3d2416b3	0.04006071
146	0x3d569891	0.052391592
147	0x3d801569	0.06254084
148	0xbdd940ba	-0.10608049
149	0xbda74e17	-0.08169191
150	0xbd717399	-0.058948133
151	0xbdf4f9bc	-0.119616956
152	0xbd768620	-0.060186505
153	0xbdb49c13	-0.08818831
154	0xbdac6785	-0.08418182
155	0x3cb85eca	0.022506136
156	0xbdbef302	-0.09323694
157	0xbe580c22	-0.21098378
158	0xbd9296c3	-0.07157662
159	0xbd6ab461	-0.05730093
160	0x3bc72621	0.0060775434
161	0x3ce04c1e	0.027380046
162	0xbde0a432	-0.10968818
163	0xbdc6a688	-0.09699732
164	0xbd9b468c	-0.07581815
165	0xbd515987	-0.05111077
166	0xbcb22665	-0.021746824
167	0xbe0a1de9	-0.13487972
168	0x3b815a99	0.0039475677
169	0xbcf005f7	-0.02929972
170	0xbe0ea042	-0.13928321
171	0xbdf8c3ac	-0.121466964
172	0x3d50c0c2	0.05096508
173	0x3ce3b8e7	0.02779813
174	0x3c82ae78	0.015952334
175	0xbd819378	-0.063269556
176	0xbca80326	-0.020509314
177	0xbd1b89af	-0.037973102
178	0xbdbd893a	-0.092546895
179	0xbd593bb5	-0.053035457
180	0xbd9a669c	-0.075391024
181	0x3c2247c4	0.009904806
182	0xbce7b07c	-0.028282396
183	0xbde76074	-0.11297694
184	0x3cbc3b9a	0.022977639
185	0xbe127379	-0.14301862
186	0xbdd79cee	-0.10527979
187	0xbe0c09d8	-0.1367563
188	0xbe016925	-0.12637766
189	0xbdde1563	-0.10843923
190	0x3cbe1cca	0.023207087
191	0x3d5440be	0.051819555
192	0xbd5a8553	-0.053349804
193	0xbcd1f4aa	-0.02562936
194	0xbc9f0d10	-0.019415408
195	0xbe2f4891	-0.17117526
196	0x3b37a719	0.0028023182
197	0xbe3d51f0	-0.18488288
198	0xbd312f48	-0.04325798
199	0xbb27f4c6	-0.0025628074
200	0xbda54414	-0.080696255
201	0x3c213bb3	0.009840894
202	0xbccbd7b9	-0.024883138
203	0xbd4bd87d	-0.049767006
204	0xbdbb6cf8	-0.091516435
205	0x3d40ec23	0.047100198
206	0xbd879b02	-0.06621362
207	0xbd8a4b60	-0.06752658
208	0xbe0aa56e	-0.13539669
209	0x3d85f50f	0.06540882
210	0xbdb1bab8	-0.08678192
211	0x3d699344	0.05702521
212	0xbd5ec690	-0.054388583
213	0xbd9446e3	-0.07240083
214	0xbd0de90c	-0.03464608
215	0xbd2e47ea	-0.04254905
216	0xbd2d39d8	-0.042291492
217	0x3cdef8f3	0.027218318
218	0x3d0eb7f9	0.03484342
219	0xbdcbd121	-0.099519975
220	0x3d2acd89	0.04169992
221	0x3c7876ef	0.015165075
222	0xbd565418	-0.05232629
223	0xbcdfbfca	-0.027313132
224	0xbdd034b0	-0.10166299
225	0xbb1d33db	-0.0023987207
226	0xbd3ee887	-0.046608474
227	0xbdb11134	-0.08645859
228	0x3bd06d43	0.0063606813
229	0x3d1259a0	0.035730004
230	0xbdb832a0	-0.08994031
231	0xbda8c743	-0.08241131
232	0x3d0c46b1	0.034247104
233	0xbd82fc62	-0.063957945
234	0xbd26e06a	-0.04074136
235	0xbc33a930	-0.01096563
236	0xbd82c875	-0.063858904
237	0xbe0d0370	-0.13770843
238	0xbe66e6dd	-0.22549005
239	0xbe02fd99	-0.12792052
240	0xbc09c360	-0.008408397
241	0xbd71bc30	-0.05901736
242	0xbd19b687	-0.037527587
243	0x3a7a2f30	0.00095437746
244	0x3cf92ef4	0.030417897
245	0x3d4229e8	0.047403246
246	0xbce3085b	-0.027713945
247	0xbdccee82	-0.10006429
248	0x3d30fc6d	0.043209482
249	0xbdfd9daa	-0.12383588
250	0xbe23bc8b	-0.15989892
251	0x3cdef065	0.027214238
252	0xbdea3a25	-0.114368714
253	0x3d6b626d	0.057466913
254	0xbb1f5c12	-0.0024316353
255	0xbc8e559d	-0.017374808

lstm.weight_ih_l1 f4 [512, 128]
0	0x3d20d3b0	0.03926438
1	0xbda0ffcb	-0.07861289
2	0x3d462ecb	0.04838447
3	0x3d3c3c23	0.04595579
4	0x3d57b3a3	0.05266155
5	0xbda1ef57	-0.079069786
6	0x3e06ec62	0.1317611
7	0x3b7782ec	0.0037767245
8	0xbdb12d9a	-0.08651276
9	0xbd14f870	-0.03636974
10	0xbd3b0109	-0.045655284
11	0xbd0fb17c	-0.03508137
12	0xbdb2de70	-0.08733833
13	0x3ce6b7cd	0.028163815
14	0x3ce193c2	0.027536277
15	0xbdcdbd5a	-0.100458816
16	0xbc83429b	-0.01602297
17	0x3e0fa05a	0.14026013
18	0x3dee900f	0.11648571
19	0x3c1fffab	0.009765546
20	0x3d42e60c	0.04758267
21	0x3dcdb866	0.10044937
22	0x3d28e226	0.041231297
23	0xbcb37653	-0.021907007
24	0x3d7ff5eb	0.062490385
25	0x3cdea59f	0.027178584
26	0x3cc9f36f	0.024652211
27	0xbdd18550	-0.102305055
28	0xbd4cca7c	-0.04999779
29	0xbde1a5e2	-0.11017968
30	0x3cc05e80	0.023482561
31	0x3d94a188	0.07257372
32	0xb9bf75bc	-0.00036518078
33	0x3de43c3a	0.111443
34	0x3bd2b6f6	0.006430502
35	0x3c189236	0.009312203
36	0xbd6bdf46	-0.057585977
37	0xbda55d41	-0.080744274
38	0x3def0899	0.11671562
39	0xbd429db4	-0.04751368
40	0x3981f664	0.00024788373
41	0x3ca58fcf	0.020210175
42	0x3c670f34	0.014102746
43	0x3cb61f58	0.022231743
44	0x3bff47d5	0.0077905455
45	0xbc2fc9d9	-0.010729277
46	0xbd256cfc	-0.04038714
47	0x3c9c02de	0.019044336
48	0xbe15fb5d	-0.14646669
49	0x3d97cc5e	0.07412027
50	0xbd61b8d9	-0.055107925
51	0x3c005eb4	0.007835079
52	0xbda40eb1	-0.08010615
53	0xbd7c2859	-0.061561916
54	0x3deaeacb	0.114705645
55	0xbd123d21	-0.03570283
56	0xbc502de7	-0.0127062565
57	0x3d34042e	0.0439493
58	0xbcf95f9a	-0.030441094
59	0x3c1323e8	0.008980729
60	0x3dd498bf	0.103806965
61	0x3d30870d	0.043097544
62	0x3d739b4a	0.059474267
63	0x3d42cb9b	0.047557455
64	0x3b3614a5	0.0027783301
65	0xbdfa3941	-0.122179516
66	0xbd1202e8	-0.035647303
67	0x3dff6f56	0.124724075
68	0xbde89cfe	-0.11358069
69	0x3d3f74aa	0.04674212
70	0x3c87b160	0.016564071
71	0xbd4ad9d3	-0.04952414
72	0xbd3c0665	-0.045904536
73	0xbaf814c7	-0.001892709
74	0x3d733047	0.059372213
75	0x3e0838b5	0.13302882
76	0xbd6bcabb	-0.057566386
77	0x3d36692c	0.044533893
78	0x3d74b1e1	0.05973995
79	0xbd13f553	-0.03612263
80	0xbd3cb9d5	-0.04607566
81	0x3d750b1a	0.05982504
82	0x3c929a70	0.017895907
83	0xbd58ec02	-0.05295945
84	0x3da9a26d	0.082829334
85	0xbd1c54bb	-0.038166743
86	0x3cd9150a	0.02649929
87	0xbc24d13d	-0.010059652
88	0xbc5c3b5a	-0.013441885
89	0xbb4256ca	-0.002965378
90	0x3d28f04a	0.041244783
91	0xbd9d9791	-0.076949246
92	0x3d78a65f	0.06070554
93	0xbc743aa3	-0.014906558
94	0x3d1dc300	0.038516045
95	0xbca30789	-0.019901054
96	0xbd2ca818	-0.042152494
97	0x3caa9e22	0.020827357
98	0xbe023c87	-0.12718402
99	0x3d74db6f	0.05977958
100	0x3d933516	0.0718786
101	0xbe057cb9	-0.13035859
102	0x3d365f6d	0.0445246
103	0x3d1ec80b	0.038764995
104	0xbde94e67	-0.11391907
105	0xbda23fac	-0.07922301
106	0xbd0f9174	-0.035050824
107	0x3db76794	0.08955303
108	0x3dede846	0.11616568
109	0x3d359c8d	0.04433875
110	0x3d9e8d60	0.07741809
111	0xbbde711a	-0.006788385
112	0xbdcb808e	-0.09936629
113	0xbd3a6c64	-0.045513526
114	0xbd08d6e8	-0.033408076
115	0x3d8759b2	0.06608905
116	0x3d9518ad	0.07280097
117	0xbd7b874c	-0.061408326
118	0xbdbf3705	-0.09336666
119	0xbd82e9ef	-0.063922755
120	0xbd842e3b	-0.0645413
121	0x3d8d98ef	0.069139354
122	0x3d2b50b3	0.041825008
123	0xbcee5cd7	-0.029097004
124	0xbbd01c59	-0.0063510356
125	0xbd9376c7	-0.07200389
126	0x3d21fe41	0.039549116
127	0xbd2c4063	-0.04205359
128	0xbd6851f6	-0.05671879
129	0x3d5ffc93	0.054684233
130	0xbc491e34	-0.012275267
131	0x3d997df5	0.074947275
132	0x3cc11092	0.023567472
133	0x3e2c578a	0.16830269
134	0xbb862292	-0.0040934766
135	0xbb5d59b2	-0.0033775386
136	0xbd8fe75d	-0.07026551
137	0xbe0babbf	-0.13639735
138	0x3df7986e	0.120896205
139	0x3d349a3e	0.04409241
140	0x3d93c4e3	0.072152875
141	0x3e0dc4e0	0.13844633
142	0xbc18a7e9	-0.009317377
143	0x3db74c8f	0.08950149
144	0xbcab9016	-0.020942729
145	0x3ac91fd2	0.0015344566
146	0x3c867682	0.01641393
147	0x3dbf0735	0.093275465
148	0x3db567b9	0.08857674
149	0xbc4432e5	-0.011975025
150	0xbdab1d06	-0.08355145
151	0x3cdd2f28	0.027000025
152	0xbcad7d83	-0.021178013
153	0x3de03fa3	0.10949638
154	0x3d8176a4	0.06321457
155	0xbd43d12f	-0.047806915
156	0x3cb245ea	0.021761853
157	0x3dc47fbf	0.09594678
158	0x3d9b7c68	0.07592088
159	0xbdc611cb	-0.096713625
160	0xbd86a072	-0.06573571
161	0x3d02d9df	0.03194606
162	0x3dcf2b3f	0.101156704
163	0x3da2e8c3	0.07954552
164	0x3d9d1d88	0.07671648
165	0x3bf9e9ef	0.007626764
166	0xbda71d0e	-0.081598386
167	0x3d40d75d	0.047080386
168	0x3d85c812	0.06532301
169	0x3da9d42a	0.0829242
170	0x3da28151	0.079348214
171	0x3d57b6ad	0.052664448
172	0xbc7bd631	-0.015370891
173	0x3d50f0a7	0.051010754
174	0x3df25f66	0.11834602
175	0x3d8a571e	0.067548975
176	0x3c0f2d62	0.008738847
177	0x3c6e2807	0.01453591
178	0xbd3ab676	-0.045584165
179	0x39925752	0.0002791235
180	0xbc6089cb	-0.013704727
181	0xbd4d729f	-0.05015814
182	0xbde868eb	-0.113481365
183	0x3c2f53fb	0.010701175
184	0x3d9da945	0.07698301
185	0xbc6be412	-0.014397638
186	0xbd259d23	-0.04043306
187	0x3d073487	0.03300908
188	0x3c2cc1e3	0.010544273
189	0x3c16f2f2	0.009213196
190	0x3dd8008a	0.10546978
191	0x3d3626eb	0.04447071
192	0x3d7f53b8	0.0623357
193	0x3dcd01bf	0.10010099
194	0xbca59291	-0.02021149
195	0x3caeeccf	0.021353154
196	0xbd3e7fef	-0.046508726
197	0xbd483d64	-0.04888667
198	0xbd2f33bd	-0.04277395
199	0x3dc5b07b	0.096528016
200	0x3dd77b8b	0.10521611
201	0xbd0548f7	-0.032540288
202	0xbcd43522	-0.025904242
203	0xbca1e591	-0.019762786
204	0xbb81bfea	-0.0039596455
205	0xb7e119a7	-2.6834035e-05
206	0xbda7f5ad	-0.08201156
207	0x3dcea6f8	0.100904405
208	0x3d9d040e	0.07666789
209	0xbdaffa45	-0.08592657
210	0x3ccb3d78	0.024809584
211	0xbd7b5298	-0.061358064
212	0xbd8ebcab	-0.06969579
213	0xbc572458	-0.013131224
214	0x3dfa5b94	0.122244984
215	0x3d019372	0.031634755
216	0x3d747ffe	0.059692375
217	0x3cd2814a	0.025696415
218	0xbdb187ab	-0.08668455
219	0x3e0b43f3	0.1360014
220	0x3de526a1	0.111890085
221	0x3d9b4795	0.075820126
222	0xbd018130	-0.031617343
223	0x3cc4708d	0.02397945
224	0x3c83b50c	0.01607754
225	0xbdea27af	-0.1143335
226	0xbd014d7e	-0.031568043
227	0x3d24bbee	0.040218286
228	0x3ce9c815	0.02853779
229	0xbd7c7e8f	-0.061644133
230	0x3d9dfbdf	0.07714056
231	0xbdd243fa	-0.10266872
232	0x3db77840	0.08958483
233	0x3c0bf151	0.008541421
234	0x3d0172e5	0.031603713
235	0x3d04d8ce	0.032433324
236	0x3d73e311	0.05954272
237	0xbd3b7d27	-0.04577365
238	0xbd3e0be4	-0.04639806
239	0x3c623e04	0.013808731
240	0xbd150d7c	-0.036389813
241	0x3d06570a	0.03279785
242	0xbd443ebf	-0.0479114
243	0xbe03c7a2	-0.12869123
244	0x3b48be6a	0.0030631074
245	0xbcebdcf8	-0.02879189
246	0x3daefa00	0.085437775
247	0x3d9601fe	0.07324599
248	0x3d92914c	0.071566194
249	0xbe0e18d4	-0.13876659
250	0xbd490b63	-0.049083125
251	0x3dcfcbdc	0.10146305
252	0xbdbbb041	-0.09164477
253	0x3d3f620b	0.04672436
254	0xbdb81e0d	-0.08990107
255	0xbdde0ad2	-0.108419076

lstm.weight_hh_l1 f4 [512, 128]
0	0xbd664cc4	-0.056225553
1	0x3d7b6ffb	0.06138609
2	0xbd57deec	-0.05270283
3	0xbd0982e7	-0.033572104
4	0xbd9a2013	-0.07525649
5	0x3db4d0f5	0.08828918
6	0xbcb3ebd7	-0.021963043
7	0xbd039139	-0.032120917
8	0xbd019158	-0.03163275
9	0x3ce99af0	0.028516263
10	0xbcfaa454	-0.030595936
11	0x3d3691d2	0.04457266
12	0xbdb075bb	-0.08616205
13	0x3d4edb14	0.050501898
14	0x3dc4ec21	0.096153505
15	0x3cb65735	0.02225838
16	0x3db044a6	0.08606844
17	0xbc45e741	-0.012079061
18	0xbb90e465	-0.004421758
19	0x3d6c9220	0.057756543
20	0x3c21ce25	0.009875809
21	0xbd8c40d9	-0.06848306
22	0xbd7a1cc2	-0.06106258
23	0x3d977d9c	0.07397005
24	0xb9be840d	-0.0003633801
25	0xbd1f1585	-0.038838882
26	0x3ce63b03	0.02810431
27	0x3d0a2151	0.03372318
28	0xbbfd40ed	-0.007728687
29	0xbcc91014	-0.0245438
30	0xbd0166da	-0.031592228
31	0xbd82a25f	-0.06378626
32	0xbcfcaaee	-0.030843224
33	0xb9b31f81	-0.00034165013
34	0xbd1a0bf7	-0.037609067
35	0xbd99f32b	-0.07517084
36	0x3d378ca9	0.04481188
37	0x3d8d95c5	0.06913332
38	0x3d11839c	0.035525903
39	0x3d024f8f	0.031814154
40	0xbd5cce41	-0.053907637
41	0x3da730d5	0.08163611
42	0xbd87e3c6	-0.06635241
43	0x3cb2f7af	0.02184662
44	0xbda42276	-0.080143854
45	0x3d07542b	0.033039253
46	0xbdae43cb	-0.08509024
47	0xbd37581c	-0.044761762
48	0xbcba76f5	-0.022761801
49	0xbd33012c	-0.04370229
50	0x3dc1c936	0.09462206
51	0x3ba11d4a	0.0049168216
52	0xbd8e60ab	-0.06952032
53	0x3ccddfbe	0.025131103
54	0x3cb44263	0.022004312
55	0xbc9fc726	-0.019504141
56	0x3d77c285	0.060488243
57	0xbd37184b	-0.044700902
58	0x3d82f9a9	0.06395275
59	0x3da2068d	0.07911406
60	0x3d8a0f4d	0.067412
61	0xbbc155f2	-0.005900138
62	0xbd1457be	-0.03621649
63	0xbd92227a	-0.07135482
64	0x3d72b276	0.059252225
65	0x3d94ed75	0.07271854
66	0x3cba8380	0.022767782
67	0xbd33d070	-0.043899953
68	0xbc2821ef	-0.010261997
69	0x3d09b633	0.033621024
70	0xbd4fd1df	-0.050737258
71	0xbd73fe82	-0.05956889
72	0xbc4011bb	-0.011722977
73	0xbbf8b3b1	-0.0075897803
74	0xbb29665e	-0.002584837
75	0xbce1001f	-0.027465878
76	0x3d4c29b4	0.04984446
77	0xbc3138a4	-0.010816727
78	0xbc9c3a39	-0.019070731
79	0x3cc69941	0.024242999
80	0x3bd7f520	0.0065905005
81	0xbd771183	-0.060319435
82	0x3d17181d	0.03688823
83	0x3cb9dd98	0.022688672
84	0x3d4f5d70	0.05062622
85	0xbcd17ec5	-0.025573144
86	0xbc9c062c	-0.019045912
87	0xbc44a6a5	-0.012002622
88	0x3d827222	0.06369425
89	0x3d2b8c87	0.041882064
90	0x3d730260	0.059328437
91	0x3d81adf2	0.063320056
92	0x3d96f3dd	0.07370732
93	0xbd5988b2	-0.05310888
94	0xbd875be3	-0.06609323
95	0xbd9d7c07	-0.07689672
96	0x3d37657e	0.044774525
97	0x3be2bf25	0.006919759
98	0xbd4aa793	-0.049476217
99	0x3d32ee54	0.04368432
100	0x3d1309d9	0.035898063
101	0xbd707809	-0.058708224
102	0xbd7e162d	-0.062032867
103	0x3a988607	0.0011636623
104	0xbd26776b	-0.04064123
105	0x3d980dd9	0.07424516
106	0xbd0103d0	-0.031497777
107	0x3bcc134f	0.0062278877
108	0x3d204572	0.03912873
109	0xbd0b0a0d	-0.033945132
110	0xbd298502	-0.04138661
111	0xbc62b295	-0.013836523
112	0x3d8d39be	0.06895779
113	0xbd8dbdd6	-0.06920974
114	0xbcda441b	-0.026643803
115	0xbdaec014	-0.0853273
116	0xbd972a18	-0.073810756
117	0x3db2316d	0.087008335
118	0xbda6b5be	-0.08140133
119	0xbd278a2b	-0.04090325
120	0x3d6cc9aa	0.05780951
121	0x3ac9ae35	0.0015387001
122	0x3ced0f37	0.028937919
123	0xbd837545	-0.06418852
124	0x3d780f29	0.060561333
125	0xbca88469	-0.02057095
126	0xbd3d36b2	-0.04619474
127	0xbd2e0d6a	-0.04249326
128	0xbcd86acc	-0.026418112
129	0xbd18f910	-0.0373469
130	0xbd15e5c4	-0.036596075
131	0xbcbf7023	-0.0233689
132	0xbb9c493a	-0.0047694715
133	0xbca96c6c	-0.020681582
134	0xbd89c0ee	-0.067262515
135	0x3da90a46	0.08253913
136	0x3c2bc393	0.01048364
137	0xbd3e54a2	-0.04646743
138	0x3c95b45d	0.01827448
139	0xbcad7393	-0.021173274
140	0x3da43312	0.080175534
141	0x3d9db0c0	0.07699728
142	0xbd773720	-0.060355306
143	0xbd9e4511	-0.07728017
144	0xbcffd0da	-0.031227518
145	0xbb189ea1	-0.002328791
146	0x3d708a06	0.05872538
147	0xbd0d2637	-0.034460273
148	0xbda99351	-0.082800515
149	0x3d7c79ba	0.061639525
150	0xbbf53202	-0.007482768
151	0x3d12dabf	0.035853144
152	0x3bf7a2d1	0.007557251
153	0x3da817d3	0.08207669
154	0xbda6ec4e	-0.0815054
155	0xbc59d510	-0.013295427
156	0xbc874584	-0.01651264
157	0xbd97d918	-0.07414454
158	0xbd22cbe1	-0.039745215
159	0xbd303a95	-0.04302462
160	0xbcd9960e	-0.02656081
161	0x3da57109	0.080782
162	0x3dba5003	0.09097292
163	0xbc9e60ee	-0.019333329
164	0x3c28ae61	0.010295481
165	0x3dab63cd	0.08368645
166	0xbd65abe3	-0.056072127
167	0xbc5d14c4	-0.01349372
168	0x3d9e64a5	0.0773404
169	0x3d6f8419	0.058475588
170	0x3c9adafb	0.018903246
171	0x3cf36f6f	0.029716222
172	0x3d86760a	0.06565483
173	0xbd5ddf0f	-0.054167803
174	0x3c020be1	0.007937402
175	0x3cd46225	0.025925705
176	0x3d5299f3	0.05141635
177	0x3a20c64a	0.0006133063
178	0x3da1e028	0.079040825
179	0x3d4c097d	0.049813736
180	0xbda03224	-0.078220636
181	0x3cebc526	0.028780531
182	0x3c20685a	0.009790504
183	0x3d0c179e	0.03420221
184	0xbd1f6228	-0.03891197
185	0x39f18a39	0.00046070086
186	0xbd358592	-0.044316836
187	0xbcc1aad7	-0.023641033
188	0x3d81edab	0.0634416
189	0x3ce6a1ff	0.028153418
190	0xbd53b9c1	-0.05169082
191	0xbd456dcb	-0.04820041
192	0x3d4c4fb7	0.04988071
193	0xbb0b644e	-0.0021269503
194	0xbc0c7681	-0.008573175
195	0xbd5b05cc	-0.053472325
196	0xbd9f0af3	-0.0776576
197	0x3dae94fb	0.085245095
198	0x3b4172a5	0.0029517796
199	0xbd8555f9	-0.065105386
200	0xbcca34c3	-0.024683362
201	0xbd529a08	-0.051416427
202	0xbd049d8c	-0.03237681
203	0x3c80a59e	0.015703972
204	0x3c9626c1	0.018329026
205	0xbda43ce5	-0.08019427
206	0x3dc3c314	0.095586926
207	0x3af012ea	0.0018316184
208	0xbdaaad04	-0.08333781
209	0xbd5cd628	-0.053915173
210	0xbd2304ff	-0.039799687
211	0xbd3cc49d	-0.046085943
212	0x3d2b7744	0.041861787
213	0xbcf7a264	-0.030228801
214	0xbc225eac	-0.009910267
215	0x3d3b0be7	0.045665648
216	0x3d54daac	0.051966354
217	0xbd98a6b3	-0.0745367
218	0xbd8fd315	-0.070226826
219	0xbb8732b6	-0.0041259183
220	0x3d91582a	0.07096894
221	0x3bf67276	0.007520969
222	0xbcf5a9ec	-0.029988252
223	0x3d34e31d	0.044161905
224	0xbd2c6f58	-0.042098373
225	0xbc9ab2bb	-0.018884053
226	0x3a1af95f	0.0005911793
227	0x3d1bba51	0.038019482
228	0xbd5879aa	-0.052850403
229	0xbd1d8421	-0.038456086
230	0xbdaec075	-0.08532802
231	0x3d70fe72	0.058836408
232	0x3d52705d	0.05137669
233	0xbcf404c3	-0.029787427
234	0xbda1e6cd	-0.0790535
235	0x3d378107	0.044800784
236	0xbd4a3159	-0.049363468
237	0xbd258635	-0.040411193
238	0x3c3c152d	0.011479658
239	0x3d944e51	0.072415
240	0xbda615c8	-0.08109623
241	0x3c084790	0.008317843
242	0xbd349e9d	-0.044096578
243	0x3d4ea738	0.05045244
244	0xbd79335a	-0.06083999
245	0x3d76f036	0.060287677
246	0xbd084d2f	-0.033276733
247	0x3d9fa500	0.07795143
248	0xbd6434ff	-0.055714604
249	0x3c445cbf	0.011985003
250	0x3cdd9d08	0.027052417
251	0xbd2ac28e	-0.041689448
252	0xbc983a20	-0.018582404
253	0x3d89f9c0	0.06737089
254	0xbd0b4140	-0.033997774
255	0x3d22f5ff	0.03978538

lstm.bias_ih_l1 f4 [512]
0	0x3de60ece	0.112332925
1	0x3d2775f4	0.040883973
2	0x3d0d555e	0.03450524
3	0x3d1620bf	0.036652323
4	0x3cee56cc	0.029094122
5	0xbc1a5a61	-0.009420962
6	0xbd05998d	-0.03261714
7	0x3d5be21e	0.05368244
8	0x3d6f1d59	0.058377597
9	0x3df942c3	0.12170937
10	0xbe0271e3	-0.12738757
11	0x3d8bf649	0.068340845
12	0x3b655a5a	0.003499648
13	0xbd6c5d0f	-0.057705935
14	0xbc5e0e6d	-0.013553244
15	0x3cf00d40	0.029303193
16	0x3d91f2de	0.07126401
17	0xbd360ca0	-0.044445634
18	0xbd0be32e	-0.034152202
19	0x3cbe6b6c	0.023244582
20	0xbd97d607	-0.07413869
21	0xbcceeb97	-0.025258822
22	0x3cb0886f	0.021549432
23	0x3c7b42b6	0.015335729
24	0xbd881b29	-0.066458054
25	0xbcd9153d	-0.026499385
26	0x3d1bdcf0	0.0380525
27	0x3c884422	0.01663405
28	0x3d97794e	0.07396184
29	0xbd27ed29	-0.040997658
30	0xbdbba570	-0.09162414
31	0xbd3d9e74	-0.04629369
32	0x3cd80503	0.026369577
33	0x3c205846	0.009786671
34	0x3dcfd0d0	0.1014725
35	0x3dcf1c45	0.10112814
36	0x3daf364b	0.085552774
37	0x3d9e0fd2	0.07717861
38	0xbda67a6a	-0.081288174
39	0xbd0cd7f5	-0.03438564
40	0xbd814fac	-0.06314024
41	0xbd3bb7ed	-0.045829702
42	0x3c994834	0.018711187
43	0x3d397408	0.04527667
44	0x3d4fd223	0.05073751
45	0x3c109052	0.008823471
46	0x3d582290	0.052767336
47	0xbd89d38d	-0.06729803
48	0x3cb92d76	0.022604685
49	0xbd901b71	-0.07036484
50	0x3db1f7e3	0.08689859
51	0x3da9cff3	0.08291616
52	0xbd076246	-0.033052705
53	0xbc073c7d	-0.008254168
54	0x3d296227	0.04135337
55	0xbd078b75	-0.03309198
56	0x3d8b7e21	0.068111666
57	0x3cb71c1a	0.022352267
58	0x3d9372cd	0.07199631
59	0x3c95514a	0.018227238
60	0xbc585f09	-0.013206252
61	0x3dbe2b62	0.09285618
62	0x3d878292	0.06616701
63	0x3dc96b6f	0.098349445
64	0x3ce2d792	0.027690683
65	0xbd492604	-0.04910852
66	0x3cc36540	0.02385199
67	0x3d9799be	0.07402371
68	0xbdb31d8e	-0.087458715
69	0x3d6e5cb1	0.058193866
70	0x3ceef575	0.029169777
71	0x3d9ab56c	0.07554135
72	0x3d6b8225	0.057497162
73	0x3d9502ce	0.072759256
74	0x3c70b8f1	0.014692531
75	0xbdc584f9	-0.09644503
76	0xbd2f1f1a	-0.04275427
77	0x3d2ae3b6	0.04172107
78	0xbb44e0f9	-0.003004132
79	0x3dded5a6	0.10880594
80	0xbca1cdda	-0.019751478
81	0x3dd8c6ed	0.10584817
82	0x3d550d1f	0.052014466
83	0xbd6ddd63	-0.05807246
84	0xbd02cb8e	-0.031932406
85	0xbd9c9ed9	-0.07647485
86	0x3d1da02a	0.038482822
87	0x3ca37749	0.01995434
88	0xbd8f8144	-0.07007077
89	0xb90a16e8	-0.00013169239
90	0xbd86ec14	-0.06587997
91	0x3d9b519a	0.07583924
92	0xbcf38977	-0.029728634
93	0xbd1cdad8	-0.038294643
94	0x3d287b74	0.04113336
95	0x3cfe3c10	0.0310345
96	0xbd9a68d6	-0.07539527
97	0xbc8e937c	-0.01740431
98	0xbda8f0ee	-0.08249079
99	0x3d617a2d	0.055048157
100	0x3be81925	0.0070830756
101	0x3c976ace	0.018483546
102	0x3ac54312	0.0015049896
103	0xbd9ebe45	-0.07751135
104	0x3c90a4eb	0.017656764
105	0xbcdc33b4	-0.026880123
106	0xbd48e160	-0.04904306
107	0xbc3025a1	-0.010751159
108	0x3c00032d	0.007813257
109	0xbcc17586	-0.02361561
110	0x3d9dd41e	0.07706474
111	0x3e8ef632	0.27922207
112	0x3ba18869	0.0049295914
113	0x3c9cc888	0.01913859
114	0x3d10d532	0.03535957
115	0x3bc854ca	0.0061136233
116	0xbd1f4e0d	-0.038892794
117	0x3d854fbb	0.06509348
118	0x3c1b63dd	0.0094842585
119	0x3d1014c2	0.035176046
120	0xbc8c5a36	-0.01713286
121	0xbd211db7	-0.03933498
122	0xbc100257	-0.00878962
123	0x3d493aae	0.049128227
124	0x3b88615e	0.0041619977
125	0xbdd3057d	-0.10303781
126	0x3d8d645f	0.0690391
127	0xbdb1755c	-0.08664963
128	0x3c018084	0.007904176
129	0xbd9fa781	-0.07795621
130	0x3cc60f52	0.024177227
131	0x3d5fdd38	0.05465433
132	0xbd69a47d	-0.057041634
133	0x3db81b24	0.08989552
134	0xbd57593d	-0.05257534
135	0xbd0e4651	-0.034735028
136	0xbb734983	-0.0037122674
137	0x3bfe1d8b	0.0077549866
138	0xbc85555c	-0.016276054
139	0x3dcb4259	0.09924764
140	0xbc245836	-0.010030797
141	0xbd8a144a	-0.06742151
142	0x3d1273af	0.035754856
143	0xbd7ddfef	-0.061981138
144	0x3d2003b8	0.039066046
145	0xbd030a86	-0.031992458
146	0x3df269e4	0.11836603
147	0x3d3254a9	0.04353777
148	0xbb41123f	-0.0029460338
149	0xbdd2e6be	-0.10297917
150	0x3d22e837	0.03977224
151	0x3d8768c2	0.06611778
152	0xbd19137e	-0.037372105
153	0xbd6c53fd	-0.057697285
154	0x3d611dbb	0.054959994
155	0xbda43b9f	-0.08019184
156	0xbc228890	-0.009920254
157	0xbbf426ae	-0.0074509
158	0xbd5a5dcc	-0.053312108
159	0xbdb11638	-0.08646816
160	0xbdd60fe8	-0.104522526
161	0x3d9aecf3	0.07564726
162	0x3d760de0	0.060071826
163	0xbd0223e3	-0.031772505
164	0xbc8fdd5a	-0.017561603
165	0x3bfef51f	0.0077806856
166	0xbdc75d7b	-0.09734627
167	0x3cc5559c	0.024088673
168	0x3ba760e9	0.005107988
169	0xbcf81f84	-0.030288465
170	0x3d31c8fb	0.04340456
171	0xbce24b04	-0.02762366
172	0x3da3645d	0.07978127
173	0x3d7cfacf	0.061762627
174	0x3d37d3df	0.04487979
175	0xbdaa10b4	-0.08303967
176	0xbd8339c8	-0.06407505
177	0x3bdd9971	0.0067626764
178	0x3c708ad9	0.014681541
179	0x3d8636b4	0.065534025
180	0x3d0444f0	0.032292306
181	0xbd81611e	-0.06317352
182	0x3d703d05	0.058651943
183	0x3cd8562d	0.02640828
184	0xbce29cf0	-0.027662724
185	0x3c81f7fc	0.015865318
186	0x3cf9fb6d	0.030515397
187	0x3b060ca6	0.0020454316
188	0xbd46e4c9	-0.04855803
189	0xbd8ad361	-0.067785986
190	0xbc84b82a	-0.016201098
191	0xbd6c1134	-0.057633594
192	0xbd2c00f0	-0.04199308
193	0xbd1944fe	-0.03741931
194	0xbd64cdfd	-0.05586051
195	0x3d89b806	0.06724553
196	0x3aeaf9c4	0.0017927219
197	0x3c22ef9a	0.009944821
198	0x3d01ff89	0.031737838
199	0xbda29030	-0.07937658
200	0xbd84337e	-0.06455134
201	0x3d7afe5a	0.061277725
202	0x3d6926f9	0.056921933
203	0xbd72e809	-0.059303317
204	0xbd90236c	-0.07038006
205	0xbd81f8c9	-0.0634628
206	0x3beaa7f6	0.007161136
207	0xbd50ea55	-0.051004726
208	0x3da1ab68	0.07894021
209	0x3d6ec03a	0.05828879
210	0x3d4797a3	0.048728596
211	0xbd95bc2f	-0.07311284
212	0xbd73ae02	-0.05949212
213	0x3d8b54cf	0.06803285
214	0xbd9d9502	-0.076944366
215	0xbda6890c	-0.08131608
216	0xbdef7928	-0.116930306
217	0x3d7dd50e	0.061970763
218	0x3ce8541c	0.028360419
219	0xbc579678	-0.013158433
220	0xbc920277	-0.017823441
221	0xbd65c1a8	-0.056092888
222	0xbd4f29a3	-0.050576817
223	0xbc85c3f8	-0.016328797
224	0xbc6de8d9	-0.014520847
225	0xbd1e3a2e	-0.038629703
226	0xbd550d17	-0.052014437
227	0xbd4f3b2e	-0.050593548
228	0xbc970ce0	-0.018438756
229	0x3c40c641	0.011766017
230	0xbd981c23	-0.07427242
231	0x3d0bf99b	0.03417359
232	0x3c772bd9	0.015086138
233	0xbd5f6438	-0.054538935
234	0xbc6a7cc5	-0.014311974
235	0x3d827b34	0.063711554
236	0xbd424d6c	-0.047437117
237	0xbb29b147	-0.002589302
238	0xbc61185b	-0.013738717
239	0xbdcc8613	-0.0998651
240	0xbbc31577	-0.0059534865
241	0xbd33840c	-0.0438271
242	0xbca70076	-0.020385962
243	0x3d31d72e	0.043418102
244	0xbdf173e3	-0.11789682
245	0xbd07f18d	-0.033189345
246	0x3cf185db	0.029482773
247	0x3d45df27	0.048308518
248	0x3a0f06b9	0.0005456019
249	0x3c4858f8	0.012228243
250	0x3d96da87	0.073658995
251	0x3b0c5cc7	0.0021417604
252	0xbb5c2b7f	-0.0033595262
253	0x3cf49395	0.029855529
254	0xbd6d3922	-0.057915814
255	0xbdc05af7	-0.0939235
