api/modelo/best.pt (torch, 801038 bytes, 9 tensors)

lstm.weight_ih_l0 f4 [512, 1]
000000 55 8b a4 3d 84 f6 87 3d 92 e2 d6 bc 01 16 98 3d
       0.08034388 0.06638816 -0.026231084 0.07426072
000010 54 04 9c bc 4b 0f 86 3c 56 92 36 bd 2c f7 81 3d
       -0.019045033 0.016364714 -0.04457315 0.063459724
000020 93 00 81 3d 7f 03 94 bd 9b c8 b2 3d 97 36 c4 3c
       0.06298938 -0.07227229 0.08729669 0.023951812
000030 6e f9 9e 3d 44 2f 44 3c 94 14 5a 3d 1a 51 a3 b9
       0.07762419 0.01197416 0.05324228 -0.00031150208
000040 10 6d 8b 3d 18 fa 0c 39 26 ae 24 bd b5 5a 10 3d
       0.068079114 0.00013444608 -0.040205143 0.035242755
000050 86 a6 22 bd 44 da 9b bc 54 17 28 bd e9 0f 54 3d
       -0.03970959 -0.019024976 -0.041037872 0.051772986
000060 ea 71 b1 bd 8a 10 26 bd d9 e2 96 bc 98 01 4d bd
       -0.086643055 -0.040543117 -0.018418716 -0.050050348
000070 c8 36 58 3b 4a 55 b0 bd 8c 69 bc 3d 34 39 81 bd
       0.0032991637 -0.086100176 0.09199819 -0.06309739
000080 d8 ca 96 3d 71 7c 37 3c 2f 10 3a bd bf 2e 88 3d
       0.07362908 0.011199103 -0.04542559 0.06649541
000090 bf 39 da 3c bd c0 a9 3d bc e6 38 3b 82 f7 02 bd
       0.026638864 0.08288715 0.00282137 -0.031974323
0000a0 63 99 0b 3c b9 41 9c bc bc e4 2a 3d 9e 4e 87 3d
       0.008520457 -0.019074308 0.041722044 0.06606792
0000b0 7f 18 82 3d df bc 2a bd c9 c2 15 3d e6 bc e5 3c
       0.063523285 -0.041684028 0.036562715 0.028044175
0000c0 0a 3e 11 3d c7 45 3c bd bf 20 a7 bd a6 a9 07 bd
       0.035459556 -0.045964982 -0.08160543 -0.033120774
0000d0 30 ff 98 bd a5 c1 84 3d 18 b3 16 3d af 6d 4d 3d
       -0.07470548 0.06482247 0.03679189 0.05015343
0000e0 b7 69 1c 3d dc 10 5c bc 4d 37 a1 3d f6 6d 62 bd
       0.038186755 -0.013431754 0.07871876 -0.05528065
0000f0 73 f3 28 bc 68 e8 9d bd 9f 26 1c 3d f9 f8 a9 bc
       -0.010311949 -0.077103436 0.03812277 -0.020748602
000100 54 93 8f 3c 18 09 c9 bc e6 c5 aa 3d 69 ab 5f bd
       0.017526306 -0.024540469 0.083385274 -0.05460683
000110 85 8d 7d bd cc dc 7a bd 8c 1c b6 3d e9 97 0c 3d
       -0.06190254 -0.061245725 0.08892164 0.03432456
000120 dc a7 b1 3d 89 99 b8 bd ef 01 9a bd 85 ec 9f bd
       0.08674595 -0.090136595 -0.075199 -0.078087844
000130 a6 fb 93 bd 0a 3d 26 3d b7 a2 b1 3c f3 ce b0 3d
       -0.072257325 0.040585555 0.021684034 0.086332224
000140 3e ce 29 bd 11 c9 45 bd 02 df 37 3d 87 d9 42 bd
       -0.041456454 -0.048287455 0.04489041 -0.04757073
000150 10 4f 37 3d cd 1d b0 bc 22 56 71 3d 1c 69 9e bd
       0.044753134 -0.021498585 0.058920033 -0.07734892
000160 4e 31 47 bd 7b ed 1a 3d ba 95 99 3c 58 fa 5d bc
       -0.048631005 0.037824135 0.018748153 -0.013548456
000170 c6 31 84 3d f9 ad 4b 3d 2c af 4f bd 37 29 1a bd
       0.06454806 0.04972646 -0.050704166 -0.03763696
000180 c6 e4 b8 3d 28 1a 94 bc 9a ec 3f bd 2b fa 95 bd
       0.0902801 -0.018078879 -0.0468565 -0.073231064
000190 fd a5 27 bd 30 e6 f0 3c 61 99 a9 ba 5e d0 53 bd
       -0.040929783 0.029406637 -0.0012939387 -0.051712386
0001a0 67 3c 47 bc 3e 1f 96 bd 22 49 8b bd 85 d0 17 bd
       -0.012160397 -0.07330178 -0.06801058 -0.037064094
0001b0 e2 de b5 bd 91 04 3b bd 2e a5 bc 3d d1 3c a2 3c
       -0.08880402 -0.04565865 0.09211193 0.01980439
0001c0 39 90 1c 3d 9e 9f be bd 96 86 38 bd 33 8c 8d bc
       0.03822348 -0.09307788 -0.045050226 -0.017278766
0001d0 8c 05 94 3c 7e 3a 86 bd fc 35 d6 bc 36 a4 35 bd
       0.018069051 -0.06554125 -0.026148789 -0.044346057
0001e0 b6 d1 28 bc 39 9f f6 bc b0 52 28 bc 70 a2 80 bd
       -0.010303905 -0.03010522 -0.0102736205 -0.062809825
0001f0 d9 0c 58 bd bb 42 20 bd 3f b6 0c bd 63 07 73 bd
       -0.052746627 -0.03912614 -0.03435349 -0.059333216
000200 f3 d0 b1 3d a5 44 c3 bc 6a 50 90 3d fd 25 a9 3c
       0.08682432 -0.023836443 0.07046588 0.020647997
000210 db c4 98 bd 18 19 74 3d 61 a4 d5 bc aa 24 b8 bc
       -0.07459422 0.059594244 -0.026079359 -0.02247842
000220 11 da b4 bd 17 29 c3 bd c7 80 12 3d de 66 44 bc
       -0.08830655 -0.09529322 0.035767343 -0.011987416
000230 0a 38 3f 3d a8 fe 94 bd 5a 14 9c 3d df 0a 59 bd
       0.046684302 -0.07275134 0.07621069 -0.052988883
000240 b4 8a 7e bc 11 da b8 3b 8a 66 3e 3d cc c7 ab 3d
       -0.015535999 0.00564123 0.046484508 0.083877176
000250 6f 6f a7 3d c0 36 a1 bd 33 7c 8c 3c a2 3c 39 bd
       0.08175551 -0.07871771 0.017149067 -0.04522384
000260 92 22 da bc 43 63 87 bd 34 e3 b1 3d 9f 79 80 bd
       -0.026627813 -0.066107295 0.08685914 -0.062731974
000270 24 5d 2e 3d c2 60 03 3d e1 96 26 3d c4 5d 14 bd
       0.042569295 0.032074697 0.040671233 -0.036222234
000280 70 cc af 3d d1 29 80 3c 4b 5d b0 bb 6d 96 87 bd
       0.08583915 0.01564494 -0.005382215 -0.06620488
000290 c7 ce 4b 3d fe 6e ec ba de f4 41 bd a6 c7 92 3d
       0.049757745 -0.0018038449 -0.047352664 0.07166986
0002a0 a2 3b 8f 3b ad 08 35 bd 90 81 25 bd d7 b7 82 bc
       0.0043711225 -0.044197727 -0.040406764 -0.015956802
0002b0 68 7a 7c 3d f2 5e d8 bc 80 da 84 bd 46 9a 95 bc
       0.061640173 -0.026412461 -0.06486988 -0.01826204
0002c0 8f a9 9b bd 7c 4b 16 3d 58 03 98 3d de 79 a8 bd
       -0.076007 0.03669308 0.07422513 -0.08226369
0002d0 f5 33 46 3c f1 df 1b 3d a0 db df 3c 35 1e 95 bc
       0.012097348 0.038055364 0.027326405 -0.01820288
0002e0 32 77 67 3d 4d 4c 0d 3d a6 20 30 3d 46 18 04 bc
       0.056510158 0.034496594 0.042999886 -0.008062428
0002f0 8b 93 16 bd f4 f9 f2 bb e8 5d 9f bb 50 4a 8a bc
       -0.0367618 -0.0074150506 -0.0048634894 -0.016881138
000300 18 0e 40 3d 54 5d 92 3d 22 38 b7 3a 2a cb b6 bc
       0.04688844 0.07146707 0.0013978521 -0.022313673
000310 53 91 08 bc bb 55 63 bc ad c0 f9 3c a0 f6 f0 3c
       -0.008335429 -0.01387542 0.030487383 0.029414475
000320 18 53 a1 bd ac 87 4b bd d7 b3 b1 3d d8 8b c6 3c
       -0.07877177 -0.049689934 0.0867688 0.024236605
000330 66 2e 8a bc 81 5e 47 bd d4 fc 82 bd 28 1d 88 bd
       -0.016867828 -0.04867411 -0.063958794 -0.06646186
000340 9d 92 c8 bc 0f 40 2a 3d 79 02 5e 3d 97 32 ec 3c
       -0.024483973 0.041564997 0.054201577 0.028832717
000350 da 34 b5 bd 09 64 5d bd ad 50 ba bb 34 e0 9c 3d
       -0.08847971 -0.05405048 -0.005685887 0.07659951
000360 c3 1e 1a 3c d2 3d 46 bc c9 40 16 3d 14 5e cc bc
       0.009406748 -0.0120997 0.036682878 -0.024947204
000370 69 cf 3a bd 66 35 5c 3d 94 56 dc bc 81 99 08 bc
       -0.045607958 0.053761862 -0.026896752 -0.008337379
000380 40 14 a1 bd f3 e3 90 3d b8 23 53 3d fb 56 35 3d
       -0.078651905 0.07074728 0.051547736 0.044272404
000390 9c aa 56 bd 1c 2b a4 bd d3 e6 7c bd 6a 2c a0 3d
       -0.0524088 -0.08016035 -0.06174357 0.07820971
0003a0 67 e8 e4 3c 8e 02 7c 3d 64 cd 55 3d 3a 4f 0a 3d
       0.02794285 0.061525874 0.05219783 0.033766963
0003b0 a3 ce 50 bc 7a 61 69 bd 1b c6 93 bd d3 c6 a3 bd
       -0.0127445785 -0.056977727 -0.0721552 -0.07996907
0003c0 83 26 41 3d 29 8c 5d bd 2c 2a a5 bb 82 ca 1f bd
       0.04715587 -0.054088745 -0.0050404277 -0.039011486
0003d0 fd 4c 43 bc ae cc 4d bd 9f 00 3d bd 3b 79 1a 3d
       -0.011920211 -0.050244026 -0.04614317 0.03771327
0003e0 ad 4d 18 bd bb 36 6a 3d ff 0e 06 bd fd 61 8d bd
       -0.037183452 0.0571811 -0.032729145 -0.069034554
0003f0 42 19 04 bc 58 59 fb bc b7 99 ff bc cf 4e 98 bd
       -0.008062663 -0.03068225 -0.031201227 -0.074369065

lstm.weight_hh_l0 f4 [512, 128]
000000 63 47 1c 3d 03 dc 98 bd 1b 7c 72 bd fd 3f ad bd
       0.038154017 -0.07463839 -0.059200387 -0.084594704
000010 8b 08 8a 3d fc 6c c3 bd f3 6d 9e 3d e0 68 61 bc
       0.06739911 -0.095422715 0.07735815 -0.013757914
000020 ac 43 9b 3a 61 dd 89 3d 84 a7 94 bc 3d 37 80 3d
       0.0011845729 0.06731678 -0.018146284 0.06260536
000030 94 6e 5a 3d cf b1 b3 bd 10 2a 36 3d b9 e1 b1 3b
       0.05332811 -0.08774149 0.044473708 0.0054285196
000040 79 b1 05 3d 7f 65 ae 3c d2 c0 10 3d 95 24 5a bd
       0.032639954 0.021288631 0.035340138 -0.053257544
000050 59 d1 bc bc ac b5 93 3d fb 31 74 3d 15 0c 8f bc
       -0.023049043 0.072123855 0.059617978 -0.017461816
000060 d9 ea 9c bd 9e 8f fd bb 8c 61 90 bd 39 6e 80 3d
       -0.07661981 -0.007738068 -0.070498556 0.06271023
000070 de 37 6c bd e7 66 8c bc 44 b3 fd bc 82 c5 d7 3c
       -0.057670467 -0.017138911 -0.03096927 0.026339296
000080 40 c3 c1 3d 19 82 3b 3c d3 72 64 3d 40 70 6c 3d
       0.09461069 0.011444592 0.055773567 0.057724237
000090 1f b1 76 3d ea a2 2a bd 20 d1 fb bb 8f a5 f6 3c
       0.06022751 -0.041659273 -0.0076848418 0.030108241
0000a0 e1 94 f8 bc 9c 28 53 3d 58 2b f6 bc a5 17 71 bd
       -0.030344428 0.0515524 -0.030049965 -0.05886044
0000b0 3a 2f 3d 3d 53 7c 27 3c 96 d5 e3 3c 66 a2 9e 3d
       0.046187617 0.010222512 0.027811807 0.07745819
0000c0 30 5c 48 3d e2 a9 c1 3d af ad d2 bb 11 e7 84 bd
       0.04891604 0.09456231 -0.006429396 -0.06489385
0000d0 09 14 8a bd 16 d7 4e bd 34 4b 88 bd a3 17 09 bd
       -0.06742103 -0.05049809 -0.06654969 -0.033469807
0000e0 f1 9e bd bd 96 fc a5 bd 76 9f 2a bd 9d 0a 9b bd
       -0.09258831 -0.081048176 -0.04165598 -0.07570384
0000f0 79 2f 33 bd 2b 96 2b 3d 95 2b 83 3d 57 22 0f bd
       -0.043746445 0.04189126 0.06404797 -0.03494486
000100 35 cd 17 bd e9 13 46 3d 9d 66 05 bd 20 11 fc bc
       -0.037060935 0.04835883 -0.032568563 -0.030769885
000110 51 8e 21 3d 8a c9 bb bd b0 a7 6f b8 65 50 88 3d
       0.039442364 -0.091693 -5.713821e-05 0.06655959
000120 97 d4 7b 3b bd ed 11 3d d7 8a 25 bd 7b 02 99 3a
       0.0038426274 0.035627116 -0.04041561 0.0011673713
000130 f6 04 2e bc f8 23 2c 3c 00 bf 3b 3d bd f1 86 3d
       -0.0106213 0.0105066225 0.04583645 0.06589077
000140 12 c2 8e bd b4 62 5e 3c cc 0e 65 bd 85 a7 92 bd
       -0.0697061 0.013573337 -0.055922315 -0.07160858
000150 9b b8 12 bc 8e e0 b1 bd 7e 70 4f 3d 44 68 de 3a
       -0.008955146 -0.086854085 0.05064439 0.001696833
000160 fd a4 4b bd ef 57 12 3d eb 12 93 bd 0f 7b 38 bd
       -0.049717892 0.03572839 -0.07181343 -0.045039233
000170 cc 2f e5 bc c1 5c 92 bd 2f 9e 3a bd a2 d5 6b bb
       -0.027976893 -0.07146598 -0.045561012 -0.003598549
000180 1e 82 9f 3d 47 1b c5 3d 4a e2 59 3d 70 76 31 bd
       0.0778849 0.09624343 0.05319432 -0.04332584
000190 eb 65 3f bd b3 92 89 3d 0a 63 aa 3c 2f e7 5c 3c
       -0.046728056 0.06717434 0.020799179 0.013482853
0001a0 8d e2 4f 3c f9 ba a6 bd e2 0c 28 bd 4d e1 c2 3d
       0.012688291 -0.08141131 -0.04102791 0.09515629
0001b0 1b 7b f7 bb 50 fa a7 3b 70 50 82 bd 56 73 79 bd
       -0.007552517 0.005126275 -0.063629985 -0.06090101
0001c0 29 bc 50 bc 97 e9 89 bd e0 45 d7 b8 c8 81 3e 3d
       -0.012740173 -0.06734007 -0.00010265014 0.046510488
0001d0 63 e8 c7 bd 41 89 85 3c 6a 3e 8d bd a0 f8 59 bd
       -0.09761121 0.0163008 -0.0689667 -0.053215623
0001e0 4c c2 36 3d f8 cf a6 3d c8 c0 4b bc ff bb 43 bd
       0.04461889 0.08145136 -0.012436099 -0.04778671
0001f0 39 9c 8b bd 5c 93 67 bd 69 dc 85 bd 46 e0 14 bc
       -0.068169065 -0.056537017 -0.065361805 -0.009086674
000200 74 b9 c7 3c 9e 5d 88 bd 44 af 87 3d de 95 1f 3d
       0.024380423 -0.06658481 0.06625226 0.038961284
000210 c3 e2 cd bd 78 fb 40 bd e6 11 46 3c 31 cc de bc
       -0.10053017 -0.04711482 0.012089228 -0.027196975
000220 13 e5 ed 3b f6 d9 d6 bc 80 24 99 3d e7 4a 5a bd
       0.007259974 -0.026226979 0.07477665 -0.05329409
000230 66 94 85 3d 36 98 58 3b 29 a1 7e 3c 49 bb 8d 3d
       0.065224454 0.003304971 0.015541353 0.069204874
000240 86 9f 09 3b 8b b7 89 bd 3d a1 fd bc 26 47 7c 3d
       0.0020999624 -0.06724461 -0.030960673 0.06159129
000250 a6 5f 81 bd 32 5f 59 3b e7 a5 d3 bd f3 72 2e 3d
       -0.063170716 0.0033168313 -0.10334378 0.042590093
000260 45 16 4b 3d 0e 85 06 bc ef e5 d1 3c 1c 9d 88 3c
       0.049581785 -0.008210434 0.025622336 0.016676478
000270 05 b8 85 3d 50 96 86 bd 46 04 bc bc 65 0e 07 3d
       0.065292396 -0.065716386 -0.022951256 0.032972712
000280 89 70 a8 3d c7 98 05 3d 02 14 42 bd 07 2e 69 3d
       0.082245894 0.032616403 -0.047382362 0.05692866
000290 8a bb fd bc 3d b9 95 bc 98 aa c3 bd 86 0d ee bc
       -0.030973215 -0.018276805 -0.095540226 -0.029059183
0002a0 86 64 a1 3d 0e b2 ca 3c b5 a7 6e bd 75 25 34 3d
       0.078805014 0.024743106 -0.058265407 0.043981034
0002b0 4d 30 8f bc 20 09 c2 3d 46 cc 74 bd 8d 7e 07 bd
       -0.017479086 0.09474397 -0.059765123 -0.033079673
0002c0 0f 17 92 bd d8 e1 50 bd 67 d3 7b 3c cf 35 ca 3d
       -0.07133304 -0.05099663 0.015370226 0.098735444
0002d0 cf e8 00 3d 48 62 bb 3d f8 12 5c 3c a5 b5 7d 3d
       0.031472024 0.09149605 0.013432257 0.061940808
0002e0 3e a8 a3 3d bc 9b 82 3d 77 d3 63 bd 7a 35 c2 3d
       0.07991074 0.0637736 -0.05562159 0.09482856
0002f0 fc f0 15 3d 75 20 6e bd bd 9a 23 bd c1 48 a7 bd
       0.036606774 -0.058136422 -0.03994249 -0.081681736
000300 e0 50 86 3c 7d 65 60 bd 50 f5 f7 3c bb 85 f0 3c
       0.016395986 -0.054784287 0.030268341 0.029360643
000310 29 9a 76 bd b3 33 f6 3b 53 f0 84 bc f5 95 e9 3c
       -0.060205612 0.0075134872 -0.016227877 0.028513888
000320 86 7c 82 3d 72 64 91 bd 1c 7f b1 3d 60 d4 6a 3d
       0.06371407 -0.070992365 0.08666822 0.057331443
000330 a2 d8 54 3d 0d e5 ad bd aa fc 94 bc 3a 22 10 bd
       0.05196441 -0.084909536 -0.018186886 -0.03518889
000340 cf 86 04 bd 3e c3 7a 3d 42 c3 ad 3c af 62 5b 3d
       -0.032355126 0.061221354 0.02121127 0.05356091
000350 80 e8 4a bd 46 d3 2c 3d 66 32 a4 3c 96 52 70 bd
       -0.049538136 0.042193674 0.020043563 -0.05867251
000360 f6 95 96 bd 6f ad 2d bd 25 88 63 3d 94 b0 bf bd
       -0.073528215 -0.042401727 0.05554976 -0.093598515
000370 c0 0b b1 bd 4f c8 85 3d bf 31 76 3d 76 c5 ad 3d
       -0.08644819 0.065323465 0.060106035 0.08484928
000380 5c ed 9e bd 0f c2 5d bd 73 2a 7f 3d d2 4b b1 3d
       -0.077601165 -0.054140147 0.062296342 0.0865704
000390 ff 5c 39 3d 17 d5 78 3b a0 b1 18 3d 81 91 b9 3d
       0.045254704 0.0037968808 0.03727877 0.09060956
0003a0 81 a4 24 bd ac 06 bd bc 40 a5 a0 3d 76 a7 4b bd
       -0.040195946 -0.02307447 0.07844019 -0.04972025
0003b0 8f 74 86 bd d1 e2 86 3d 29 32 ce 3c c5 70 20 3d
       -0.065652005 0.065862305 0.025170403 0.039170045
0003c0 55 05 09 bd a8 8e 92 bc b5 ab b0 3d 0d 60 33 bd
       -0.03345235 -0.01789029 0.086265005 -0.043792773
0003d0 70 6a 39 bc 7b ac 0c 3d 95 5f 66 bd 0f 1b c6 3d
       -0.011316881 0.034344178 -0.056243498 0.0967313
0003e0 f9 e7 e4 bc 09 56 27 bc b1 aa 26 bd 35 97 2a bd
       -0.027942644 -0.0102133835 -0.040690128 -0.04164811
0003f0 e0 2a d2 bd 77 e2 3c 3d 5d 8e 20 3d 60 c0 b5 bd
       -0.10262084 0.04611441 0.03919827 -0.08874583

lstm.bias_ih_l0 f4 [512]
000000 f7 19 21 3d b0 5a c8 3d ce c2 af 3d ec f4 8d bd
       0.039331403 0.09782922 0.08582078 -0.06931481
000010 54 9b 5e bd 76 b3 bf 3c 23 63 f6 bc 30 d4 80 3d
       -0.05434735 0.023401003 -0.030076569 0.062904716
000020 0c 70 61 3d 66 11 6f bc 12 a6 93 bd 9a 59 0a 3d
       0.055038497 -0.01459155 -0.0720941 0.033776857
000030 f5 8e 6e 3d 77 15 84 bc bf 8b 37 3c d2 21 57 3d
       0.058241803 -0.016123516 0.011202752 0.052522488
000040 ed cf a8 3c c1 b1 d5 3c d9 78 2c 3d 8d 2a 76 bd
       0.02060696 0.026085736 0.042107437 -0.060099173
000050 f3 f8 b3 b9 72 22 4f 3b 54 d3 28 bc 56 71 4a 3d
       -0.00034327022 0.0031606224 -0.010304291 0.04942449
000060 51 57 27 bd bf a1 b8 bd af d2 40 bb bc a9 87 ba
       -0.040854756 -0.090152256 -0.0029422452 -0.0010350267
000070 20 a0 55 bd a0 03 b3 bd f3 9d 9f 3d cf ac 19 3c
       -0.05215466 -0.08740926 0.07793798 0.00937958
000080 25 63 91 3d d5 3b a7 3d 2a dd 8f 3d e3 8f 87 bd
       0.070989884 0.08165709 0.070246056 -0.06619241
000090 6b 10 59 bd b0 3e cc bc 18 fd 98 3d 3e af 89 3d
       -0.052994173 -0.024932235 0.07470149 0.06722878
0000a0 3a b5 bd 3d 61 0c 50 3d c4 d5 fe 3c 89 28 bf 3d
       0.09263082 0.050793055 0.03110779 0.09333903
0000b0 24 46 1b 3d 69 10 8e bc b0 5b ef 3a c8 06 19 3d
       0.03790869 -0.01734181 0.0018261578 0.037359983
0000c0 95 26 95 3d ce 3a 83 bc a3 dd 95 3d 60 91 32 3d
       0.072827496 -0.016019251 0.073176645 0.04359567
0000d0 41 1f 51 bd 41 8f 07 bd d8 80 90 3d d0 30 b5 3d
       -0.051055197 -0.033095602 0.07055825 0.08847201
0000e0 91 b1 95 3d ee 91 ea ba b4 64 3f 3d 24 67 a8 bc
       0.07309259 -0.0017896274 0.046726897 -0.020556994
0000f0 12 97 e6 3c 2e f6 ba bc f3 92 3a 3d 7a 21 50 3c
       0.028148208 -0.022822466 0.045550298 0.012703294
000100 87 49 8d 3d 93 97 1b 3c 6d e9 b2 3d 4d 0e 8f 3d
       0.0689879 0.009496587 0.08735929 0.069851495
000110 fe bb 60 3d 49 a1 fe bc d1 b5 8a 3d 94 d3 ae bd
       0.054866783 -0.031082766 0.0677296 -0.08536449
000120 51 a1 b9 3d e4 b1 f3 bc c1 53 9a 3d dc ac 65 bd
       0.09063972 -0.02974791 0.07535506 -0.056073055
000130 3c d9 34 3d 74 8e f7 bb 68 7b 90 bc 18 d9 a6 3d
       0.044152483 -0.0075548235 -0.01763697 0.08146876
000140 a4 90 3b bd 4a fb 84 3c 18 cc 49 3d 59 92 99 3d
       -0.045792237 0.016233105 0.049266905 0.07498617
000150 4e 18 04 3d f2 a3 a5 3c a9 78 ea 3b 3c 10 ff bc
       0.03224974 0.020219777 0.007155497 -0.03113567
000160 23 11 a2 bd 7d d3 ae 3d f9 4e 84 bc 66 9c 02 3d
       -0.07913425 0.08536432 -0.016150938 0.031887434
000170 4b f8 a5 3c 43 f9 95 bc 60 e5 51 bd 0f 76 9f bd
       0.020259997 -0.018307334 -0.05124414 -0.0778619
000180 13 7d 2a bd 16 db bf bc e4 96 cf 3d 92 8f eb 3c
       -0.041623186 -0.023419898 0.10136202 0.028754983
000190 84 9d 22 3d ca 9c 88 bc 5b b8 3a bd c2 f3 92 3c
       0.039701 -0.016676325 -0.04558597 0.017938498
0001a0 77 e7 ca 3d 8b 9e d5 3b ec d7 1b 3d 92 2a a5 3d
       0.0990743 0.006519144 0.038047716 0.0806476
0001b0 0e 32 4e 3c 1f 77 ab 39 93 2f 44 3d bf 4b 8c 3d
       0.012585176 0.00032704414 0.047896933 0.06850385
0001c0 af ce a4 3d 84 11 ab 3d 6d 8d b9 3d bf a9 50 bd
       0.08047234 0.0835295 0.09060178 -0.050943132
0001d0 65 25 29 bd 12 54 92 bd 72 54 38 bd 58 e6 7a 3d
       -0.041295428 -0.071449414 -0.04500241 0.06125483
0001e0 6c 7a 11 bd 7e 50 88 3d d6 45 1b bd a6 96 7d 3d
       -0.03551714 0.06655978 -0.037908398 0.061911248
0001f0 3e 9b 19 3a c3 78 61 3d 0f 8f 38 bd 8a c3 61 3d
       0.00058596197 0.055046808 -0.045058306 0.05511812
000200 c7 7c fa bc aa 31 1a 3c e8 cc 4b 3d ff 85 83 3c
       -0.030577077 0.009411255 0.04975596 0.016055105
000210 30 24 79 bc 7d 1a 03 bd ee a1 f8 bc 33 a2 f1 ba
       -0.015206382 -0.032007683 -0.030350652 -0.001843518
000220 4d c9 a4 3d f4 5d 96 b9 ae dd 80 bc 0f 6b a1 3d
       0.080462076 -0.0002868023 -0.015730705 0.07881748
000230 78 a7 9e 3d 5f af 9e 3d 32 62 5e 3d ea 42 4d 3c
       0.07746786 0.07748293 0.054292865 0.012528161
000240 ed ba 30 3d bb d6 83 bd 49 d6 fd bb ec e6 4e 3d
       0.043147016 -0.06437441 -0.007746492 0.050513193
000250 a9 72 0a bc e2 35 41 3c d1 9c a3 3d b4 ac 91 bd
       -0.008450189 0.011792632 0.07988895 -0.07113019
000260 a6 1d 99 bd a9 00 29 bd d2 01 ac bd c8 b1 43 3c
       -0.07476358 -0.041260395 -0.08398785 0.011944242
000270 9b 19 b7 3c 24 95 c5 3b 49 19 51 3d 40 00 82 bd
       0.022351077 0.006029742 0.051049504 -0.06347704
000280 81 1f 95 3d 24 81 e2 bc 89 95 2d bc dc a0 ba bb
       0.072813995 -0.02764947 -0.010594734 -0.0056954455
000290 03 f1 97 bd fa 81 47 bd a7 73 9d bd c4 4e 3c 3a
       -0.07419016 -0.04870794 -0.076880746 0.0007183368
0002a0 26 be 0d 3b 7c 1c a4 3d 35 58 b8 3d 50 43 86 3d
       0.002162823 0.080132455 0.09001199 0.065558076
0002b0 9d 1b a2 3d 0a ad 47 3c 59 27 82 bd a4 3b d9 3c
       0.07915423 0.012187252 -0.06355161 0.026517697
0002c0 60 39 02 3d 11 69 05 bd fb 6a 1a 3d 69 77 d2 bb
       0.031793 -0.032570902 0.03769968 -0.006422926
0002d0 f2 87 63 bd 02 0e 5d 3d 8b ff c7 3d 15 83 95 bd
       -0.05554957 0.053968437 0.09765538 -0.073003925
0002e0 06 b1 1a bd d5 e2 d0 ba e9 ca a0 3d 1e f0 90 3d
       -0.03776648 -0.0015936742 0.07851202 0.07077049
0002f0 6e 10 8b 3d 04 b3 5e 3c 8e 41 75 bd c6 31 85 bd
       0.06790243 0.013592485 -0.05987697 -0.06503634
000300 f8 4b 28 bd 8b 72 7d bd 5c 28 b6 3c c4 8d a3 bd
       -0.041088074 -0.061876815 0.022236042 -0.07986024
000310 cf d4 ae 3c 97 a9 7d bb aa 5c a5 3d ac 66 08 3d
       0.02134171 -0.003870582 0.08074315 0.03330104
000320 f6 ad 8b 3d e8 aa 5d bb 2d c0 a4 39 19 8a 3b 3d
       0.0682029 -0.0033823792 0.000314237 0.045785997
000330 14 b3 c1 3c b2 ea 6a 3d 87 fb ad 3c e1 c4 05 3d
       0.023644961 0.05735273 0.021238102 0.03265846
000340 c4 4a 48 bd 9f 3d 8b 3d c7 cb 59 bd 9a 37 c3 3d
       -0.048899427 0.06798863 -0.053172853 0.095320895
000350 1d fa 86 3d 19 b3 a2 bd 8a 2d f1 bc a7 1c 96 3d
       0.06590674 -0.079443164 -0.02944066 0.07329684
000360 2d b1 84 3d 83 c4 c1 3b d1 73 8f bc 70 59 ab 3d
       0.06479106 0.0059133186 -0.01751128 0.08366668
000370 a5 16 aa 3d 02 66 8e bd 2e 4d a2 3d d6 40 bd 3d
       0.083051 -0.0695305 0.07924877 0.09240882
000380 17 e7 7f 3d 9b 36 8a bd 14 8e a2 3b ae 0a e1 bb
       0.062476244 -0.067486964 0.0049607847 -0.006867728
000390 2b 63 e2 bb 67 04 80 3d 44 9e b9 3d 60 92 ba 3d
       -0.0069087944 0.0625084 0.0906339 0.0910995
0003a0 97 86 55 bc 24 ea 3e bc f2 70 8c bd c2 8b 32 3d
       -0.013032577 -0.011652503 -0.0685748 0.043590315
0003b0 38 f5 ae 3c d8 4e 85 bc 3d 1b 1d 3c da dc 88 bd
       0.021357164 -0.016272947 0.009589014 -0.06682749
0003c0 f0 50 b3 3d dc 29 02 3d 23 ec 21 bd 45 58 df 3c
       0.08755672 0.0317782 -0.03953184 0.02726377
0003d0 e9 ef 8e bd 62 ee da bc b6 c9 fb bc 38 eb 64 3c
       -0.06979353 -0.026724998 -0.030735832 0.013972096
0003e0 81 32 15 bd bc e9 5a bd df 85 71 bd 42 fb dc 3c
       -0.036425117 -0.053445563 -0.05896556 0.026975278
0003f0 3e fc 80 3d e3 92 57 bc e3 49 5d bc 13 4a ab 3c
       0.062981114 -0.013157579 -0.0135063855 0.020909345

lstm.bias_hh_l0 f4 [512]
000000 a0 bc bf 3d 57 0b 45 bd 74 65 3f bc 4a 1b 81 3d
       0.09362149 -0.048106518 -0.011681903 0.06304033
000010 8d 31 92 3b ab 3d c6 ba bb 88 a6 3d 13 70 b8 3b
       0.0044614733 -0.001512458 0.08131548 0.0056285947
000020 7e 06 5e 3d 93 b0 a4 bd eb 8f 41 bd 60 e7 99 bd
       0.05420541 -0.08041491 -0.04725639 -0.075148344
000030 23 58 00 3d db 5c 4c 3d a9 56 46 3d 80 d8 5c 3d
       0.031334054 0.04989324 0.04842249 0.053917408
000040 a8 7b a6 3a c7 29 7a 3d 61 f7 5d 3c 0e 42 e4 bc
       0.0012701647 0.061075 0.013547749 -0.027863529
000050 0e 04 b7 bb f8 cb 5d bc ba c0 9c bd f3 73 34 3d
       -0.0055852 -0.0135373995 -0.07653947 0.04405589
000060 fd 2b 0a bc fa 11 a6 3c f3 fa 46 bd 21 16 4e bd
       -0.008433339 0.020272244 -0.048579168 -0.050314073
000070 3a 48 81 3d c4 68 f0 3c 00 4e 4f 3c 8f 1c ef 3c
       0.06312604 0.029346831 0.012652874 0.029188422
000080 57 13 f3 bc e5 7c a1 3a ed 0e 6b 3d 3a 72 a3 bd
       -0.029672308 0.0012320547 0.05738728 -0.07980771
000090 f4 42 b5 bb cc 86 ad 3d b9 a2 ac bb 42 d3 9f bd
       -0.005531663 0.08472976 -0.0052684215 -0.07803966
0000a0 43 61 b7 3d 04 d7 8f 3d f3 8a 70 bd 45 82 b4 3b
       0.08954098 0.07023433 -0.058726262 0.0055086934
0000b0 ec 92 7b bd 3e a7 8e 3d d1 e7 b7 3c 33 03 ba 3d
       -0.061419412 0.06965493 0.022449406 0.090826415
0000c0 5d 30 34 3d ba 6e b8 3c e1 dc 91 3d 05 f8 87 bd
       0.043991435 0.022513736 0.071222074 -0.06639103
0000d0 ac 28 4d bd b6 64 e4 3c a0 24 ca bc ba d9 89 3d
       -0.050087616 0.027880054 -0.024675667 0.06730981
0000e0 50 c9 01 3d e3 46 a3 3c fc 04 ae 3d b0 09 1c 3c
       0.031686127 0.019931262 0.084970444 0.009523794
0000f0 29 05 68 bd 61 a1 55 bd 50 35 3b bd 89 ac 0d 3d
       -0.056645546 -0.052155856 -0.04570514 0.03458837
000100 ee 47 0f 3a c5 a2 98 bd 18 76 6b bd dc d7 53 3d
       0.00054657354 -0.07452921 -0.05748567 0.05171953
000110 09 8d 9e bd 87 0d 81 3c bf 7a 79 3c 62 95 f1 bc
       -0.07741744 0.01575352 0.015227019 -0.029490177
000120 9e 94 8c bd 8c a8 35 bc b6 c9 2f bd e9 2e bf 3c
       -0.06864284 -0.011087548 -0.042916976 0.023337798
000130 ca 05 14 3d 4b 7f d0 bc 40 f9 fd bc 06 68 7e 3d
       0.036138333 -0.025451323 -0.03100264 0.062110923
000140 85 aa 3f bd 84 3b 89 bb cd b0 25 3c 8e 82 ba 3d
       -0.04679348 -0.004188003 0.010112953 0.091069326
000150 de 5c 97 bc 9a 31 cc bc e1 70 f3 3c 9b d2 0c bd
       -0.0184769 -0.024925996 0.02971691 -0.034380537
000160 fa 6e d4 bc c3 40 97 bd 41 10 49 bd 59 0d 75 bd
       -0.025931824 -0.07385399 -0.049087767 -0.059827182
000170 75 14 cb bb a5 09 85 3d 4d ec 80 bd 26 d5 66 3d
       -0.006197507 0.0649598 -0.06295071 0.056355618
000180 dc dc 95 bd 63 d5 c2 3d d0 9c 66 3c 85 59 8b bd
       -0.07317516 0.095133565 0.014075473 -0.06804184
000190 42 33 a0 3b 7a 25 29 bd a3 82 80 bd a6 ba 35 bd
       0.004888923 -0.041295506 -0.06274917 -0.044367455
0001a0 9b 33 31 bd 3b 8a b5 3d 70 91 7c bb 41 56 06 bd
       -0.043262105 0.08864256 -0.0038538836 -0.032797102
0001b0 ba bf 48 3c 9f 53 59 bc ed 15 a1 3d 4b 6a 3a 3d
       0.012252742 -0.013264566 0.0786551 0.045511525
0001c0 e6 42 a9 3d 39 44 f2 3c 6f 3d 49 bb e5 d0 a0 bc
       0.08264713 0.029573547 -0.0030706783 -0.019630859
0001d0 d1 97 73 3d b0 a1 f9 3c eb 11 c5 bc 3b 85 8b 3d
       0.059470955 0.030472606 -0.024056396 0.06812521
0001e0 22 a3 1e 3d c4 c5 4f bd 47 37 6c bd 25 8f 34 3d
       0.038729794 -0.050725713 -0.057669904 0.044081826
0001f0 bc b7 52 3c 50 5e f2 3c d9 11 8a bc 8a 65 89 bd
       0.0128611885 0.029585987 -0.016854214 -0.0670882
000200 2d 2c 08 bd 00 7e 94 bd da 03 02 3d a1 96 06 3d
       -0.033245254 -0.07250595 0.031741954 0.032858495
000210 e9 9c 41 bd eb 8d 7b bd 6c 4f 6a 3d 6c 3a 75 3c
       -0.04726878 -0.06141464 0.05720465 0.014967542
000220 6c 0d 8c bd 89 d5 54 3b 3c 5a 93 3b 4b 3d f3 3c
       -0.068384975 0.003247591 0.0044968408 0.029692313
000230 9c 87 00 3d 1f ed 93 ba 00 57 81 bd f4 ec 26 bb
       0.031379327 -0.0011285878 -0.06315422 -0.0025470825
000240 e4 6f a9 bb 24 33 a9 3d 58 d9 b9 3d a3 de af 3d
       -0.005170809 0.082617074 0.09074658 0.085873865
000250 a5 d6 9f bd 60 2d ce bc 08 41 8a 3a 69 27 71 bd
       -0.07804612 -0.02516812 0.0010547945 -0.058875475
000260 d5 79 e5 bc 8d 85 d4 bb e9 cd 52 bc 58 ff 93 3d
       -0.028012196 -0.006485647 -0.012866476 0.07226437
000270 fd 1c 80 bd 93 02 15 3c e1 02 3a bd 4f 00 d1 bc
       -0.06255529 0.009094852 -0.0454129 -0.025512842
000280 e9 11 03 3d b9 c2 63 3d 79 a2 8c bd 3a 6b 91 bd
       0.031999502 0.055605624 -0.06866927 -0.0710053
000290 4d 32 36 bd 57 8d f8 bc 3f 87 91 3d 50 ab 99 bd
       -0.044481564 -0.030340834 0.07105874 -0.075033784
0002a0 8d 3f b4 3d af a5 cb bb f1 11 1e bd 78 59 01 bd
       0.08801184 -0.0062148194 -0.03859133 -0.031579465
0002b0 95 28 a0 3d 30 91 39 3d a6 81 8d 3d 4b 83 c5 bc
       0.078202404 0.045304477 0.06909494 -0.024110457
0002c0 60 67 b9 3d 28 46 55 bb f5 32 0b 3c 7d ef fe 3c
       0.0905292 -0.0032543037 0.008496036 0.031120056
0002d0 be f7 1b bd 81 69 52 3d 9a ad 46 3a fc 4f 99 bd
       -0.038078062 0.051370148 0.0007578969 -0.07485959
0002e0 13 71 76 3d 47 c6 b2 bd 98 3f 93 bd d0 b6 1e 3d
       0.06016643 -0.08729225 -0.07189864 0.038748562
0002f0 a1 5d 82 bd 7b 09 f4 bc 61 ba 6e 3d 5d 00 ba 3d
       -0.063655145 -0.029789677 0.058283214 0.090821005
000300 8a db 88 bd e3 55 12 3b c9 11 31 3c 73 d2 94 3c
       -0.06682499 0.0022329025 0.010807463 0.018166756
000310 fe ae a3 3d 22 7a c4 bd f1 b0 1a bc cb 35 c4 3c
       0.079923615 -0.095936075 -0.0094416 0.023951432
000320 c1 5b 70 bc 7d 1e 2c 3d ad 7f 0b bc e6 60 95 3b
       -0.014670313 0.042021263 -0.008514327 0.0045586703
000330 f8 9f 01 bc 23 54 9a 3d fd 47 30 3d b2 87 4b bd
       -0.007911675 0.07535579 0.043037403 -0.049689956
000340 6a db 7b bd 7d 5e a2 3d 27 5d 2b bd bf 6d aa 3d
       -0.061488546 0.079281785 -0.041836884 0.08321714
000350 0e 18 f3 bc cb 58 4b bd 16 8f 60 3a cb 1d e0 3c
       -0.029674556 -0.049645226 0.00085662433 0.027357956
000360 70 58 62 3d fa 76 4e 3d 2f d8 95 3d 69 ce 92 bd
       0.05526012 0.050406434 0.073166244 -0.07168276
000370 f5 33 77 3d cc 40 09 3d 9b 09 12 bd 2f c2 a3 3b
       0.060352284 0.03350906 -0.03565369 0.0049975137
000380 15 68 5a bd 89 00 c6 3c b2 f4 b4 bb 3c 19 bb bc
       -0.053321917 0.024170177 -0.005522334 -0.022839181
000390 34 b5 2a 3d 73 39 b5 3d 33 b6 67 bd 3f b0 73 bd
       0.041676715 0.08848848 -0.056570243 -0.059494253
0003a0 d9 55 c9 3d ff 97 72 3d 3e 83 28 3c ec aa ec 3c
       0.09830827 0.059226986 0.010285197 0.028890096
0003b0 c0 bf 89 3d 12 8e 1e bd f1 dc 8d bd 6d 74 89 bd
       0.067260265 -0.038709708 -0.06926907 -0.067116596
0003c0 32 be 95 3c 4d 2e 67 bc ab 9b 81 bc b3 d5 bb 3c
       0.018279169 -0.01411016 -0.015821299 0.022929048
0003d0 dd fd 69 3d 92 21 a0 3d df d7 f5 ba 48 21 8e bd
       0.05712687 0.07818903 -0.0018756351 -0.06939942
0003e0 b8 37 86 3d e8 a7 83 bc a1 41 a6 bd d4 00 62 3d
       0.06553596 -0.016071275 -0.081179865 0.05517657
0003f0 d0 de 21 bd 08 4b a7 3d 15 61 e1 3c f9 0d 9e 3a
       -0.03951913 0.08168608 0.027512113 0.0012058608

lstm.weight_ih_l1 f4 [512, 128]
000000 91 b3 18 3d da a2 f6 bc 6d 3a cf 3c 9a e4 3a bc
       0.037280623 -0.03010695 0.025296414 -0.011407042
000010 cd c3 75 3c 81 6a 3e bd 0d 5e a2 3d 7c 5d 0b bb
       0.015000296 -0.04648829 0.07928095 -0.0021265438
000020 3d c2 8d bd dd 4e b5 bc df 89 27 bd a9 a9 63 bd
       -0.06921814 -0.022132332 -0.04090297 -0.055581722
000030 b1 66 b8 bd 4a 07 ff 3c 0a a9 ad 3c 7e 69 9e bd
       -0.09003962 0.031131405 0.021198768 -0.07734965
000040 9b da 0c bd dc 82 c3 3d 62 11 a3 3d c4 3d 0d 3a
       -0.034388166 0.09546444 0.079623 0.0005387927
000050 9d f8 92 3d f9 2d b4 3d 7c 50 9e 3b 2a af 35 3d
       0.071763255 0.08797831 0.004831372 0.044356503
000060 27 1a 8e 3d 38 91 96 3d 8d 87 e5 3c 69 bf 7e bd
       0.06938582 0.07351917 0.028018737 -0.06219426
000070 f0 2d 8c bc 0b e1 70 bd ec e6 14 3d 68 12 3e 3d
       -0.017111748 -0.058808368 0.036353037 0.046404272
000080 7d 2b d0 bc 70 b3 b8 3d 25 88 88 3c d4 b9 7e bb
       -0.025411362 0.090186 0.016666481 -0.0038868086
000090 68 86 2f bd 91 ed 65 bd 25 9b 75 3d 72 80 00 bd
       -0.04285279 -0.056134764 0.05996241 -0.031372495
0000a0 4a a8 19 3d 96 4c 04 3d 93 74 fa 3c ea 32 93 3d
       0.03751401 0.0322996 0.030573165 0.071874455
0000b0 b4 ce 71 3c 95 21 1f ba 19 3a 3b bc 57 dd 10 3d
       0.0147587545 -0.0006070373 -0.011427426 0.035367336
0000c0 12 e2 13 bc f4 6d ed 3c ae a6 e1 bc b7 4d f1 3b
       -0.009026067 0.028983094 -0.0275453 0.0073640007
0000d0 ca fe 3a bd 4b f7 5a bd 03 3b 9d 3d a1 d9 25 bd
       -0.045653142 -0.053458493 0.07677271 -0.04049075
0000e0 b1 d4 d6 3c 5a 90 4b 3d 46 3e 71 bd 12 aa 9e bc
       0.026224466 0.04969821 -0.05889728 -0.019368205
0000f0 ef ec 67 3d a7 f8 ca bb ab d1 77 3d fb 2d 8b 3d
       0.05662244 -0.0061941925 0.06050269 0.067958795
000100 63 2a b3 3b 43 29 9a bd 8f 8a 72 bd fe 6b 93 3d
       0.0054676994 -0.07527401 -0.05921417 0.07198332
000110 cb a4 44 bd f2 0b 86 3d bb a4 80 3c f5 d7 1d bd
       -0.04800872 0.06545247 0.01570355 -0.03853603
000120 06 f7 e8 bb 75 8d a1 3c 86 33 6d 3d 3b b8 c4 3d
       -0.0071095256 0.019720772 0.057910465 0.09605452
000130 61 b8 05 3c 93 90 82 3d be b3 08 3d ac d9 43 bd
       0.008161635 0.063752316 0.03337454 -0.04781501
000140 84 bc e0 bc 70 a1 83 3d ec f4 2e 3d d7 5c 94 bd
       -0.027433641 0.06427276 0.042714044 -0.0724427
000150 f3 bc 80 3d 01 35 91 bc 80 1c f6 3c dc c8 99 3d
       0.06286039 -0.01772547 0.030042887 0.07509014
000160 42 1b a3 3d d7 ff b1 3b c3 6a 0c 3c f3 02 be bd
       0.079641834 0.00543211 0.008570376 -0.09277906
000170 15 bd 81 3d a0 e1 71 bc 9a f3 85 3d af 67 11 bd
       0.06334893 -0.014763266 0.06540604 -0.03549927
000180 60 98 8d bd 1e b3 cd 3c 99 67 a8 bd f0 be 25 3d
       -0.06913829 0.025109824 -0.08222885 0.040465295
000190 de 7f 07 3d 45 ac c4 bd 47 05 90 3d 7d e4 2a 3d
       0.033080928 -0.0960317 0.070322566 0.04172181
0001a0 b3 cb 7a bd 76 94 be bb 53 a6 d5 3c 89 b3 82 3d
       -0.06122942 -0.0058160378 0.026080286 0.063819
0001b0 b6 95 fb 3c 94 39 bd 3c b8 62 28 3d 41 32 47 3d
       0.030711036 0.023098744 0.04110977 0.04863191
0001c0 12 25 b9 bd a9 d3 93 bd 97 e6 c5 bc d9 39 94 3d
       -0.09040274 -0.07218105 -0.024157805 0.07237596
0001d0 74 01 51 3d 7f a5 63 bd 01 bb bc bd ee 2a 03 bd
       0.051026776 -0.05557775 -0.09215356 -0.032023363
0001e0 2c 23 0f bd a3 20 11 3d b6 9d ae bc 0f 03 65 bc
       -0.034945652 0.035431515 -0.021315437 -0.01397778
0001f0 63 9b 88 bd 77 cb 8e bd 3a 49 48 3d 9d ed 17 bd
       -0.06670263 -0.069724016 0.04889796 -0.03709184
000200 56 75 94 bc 61 8e 91 3d c5 c3 8c bc a1 36 68 3d
       -0.018122356 0.07107235 -0.017183194 0.056692723
000210 69 53 ed 3b 58 66 b1 3d 00 a4 a5 3a c0 b2 61 bd
       0.0072426093 0.08662099 0.0012637377 -0.05510211
000220 7a 4e 98 bd 64 f3 95 bd f1 fd a8 3d fd 91 9f 3d
       -0.07436843 -0.07321814 0.082515605 0.07791517
000230 d1 ca fb 3c 55 fe 85 3d ed 36 1c 3d 91 3a 6a 3d
       0.030736359 0.065426506 0.03813832 0.05718476
000240 78 51 92 bc da 79 81 bc 78 a4 11 3d d9 56 fd 3c
       -0.017861113 -0.015805174 0.03555724 0.030925201
000250 68 3b 61 3d c3 85 ff bb 10 55 bc bd 7c f8 37 bd
       0.054988295 -0.007797928 -0.09195912 -0.044914708
000260 3e 5e bc bc 84 21 89 3d e2 ea be 3c bb 40 6e bd
       -0.022994157 0.06695846 0.02330536 -0.0581672
000270 60 aa 00 3d 81 4e 2d 3d c5 e4 0a 3d f7 2d a6 bd
       0.031412482 0.042311195 0.033909578 -0.08114236
000280 6e 05 07 bd 6a b4 1b 3d a6 32 c5 3d 48 4c f2 3b
       -0.032964163 0.038013853 0.09628801 0.0073943473
000290 6b bf d6 3c 4f 45 01 bd c5 71 14 bd 09 4b bf 3c
       0.026214322 -0.03156024 -0.03624131 0.02335121
0002a0 0a 77 8c 3d 6e 04 91 3d 4b c3 be 3c 3b 8d 1a 3d
       0.068586424 0.07080923 0.023286482 0.037732344
0002b0 03 74 07 3d 0f 99 19 3d c7 4a c6 3d 6b 36 dc 3c
       0.03306962 0.037499484 0.096822314 0.026881417
0002c0 88 2e 2e bd b8 8b 93 3a a9 8d 97 bd c0 04 08 3d
       -0.042524844 0.0011256849 -0.074000664 0.033207655
0002d0 82 39 2d 3b 45 f8 ab bd 2d b5 b6 bd 7f 81 52 3d
       0.0026431982 -0.08396963 -0.08921275 0.05139303
0002e0 c8 3d 82 3d 39 2b c6 bd 7a cc da bc 38 86 77 3d
       0.0635944 -0.09676213 -0.02670883 0.060430735
0002f0 4f d0 f7 bb cd 00 0b bc d5 26 82 3d e0 fc a0 3c
       -0.007562674 -0.008484078 0.06355063 0.01965183
000300 df be a0 3d 27 34 d1 3d 3e 44 5a bc ee fe 8a 3d
       0.07848906 0.102150254 -0.013321934 0.06786905
000310 b8 d9 7e bd 41 82 8a bd 04 b9 9f bd 07 8f 63 3d
       -0.06221935 -0.06763125 -0.07798961 0.055556323
000320 f4 6a 9d 3d be 89 95 bc 01 c6 28 3c 77 f2 a6 bc
       0.07686415 -0.018254157 0.010301114 -0.020379288
000330 49 fa cb 3b 72 23 51 bd 3f d6 7e bd 65 42 36 3d
       0.0062249047 -0.051059194 -0.06221604 0.044496913
000340 f2 e1 bb 3c ee 50 4d bc 71 8b 12 bd 6b d7 8e bd
       0.022934888 -0.012531502 -0.035777513 -0.069746815
000350 2b 63 a2 bd 4c f4 3a bd 62 3f 90 3d b1 a0 05 bd
       -0.07929071 -0.045643136 0.07043339 -0.03262395
000360 18 6a 1a 3d 30 4a 0c 3c b8 2f 5d bd 5d c3 85 3d
       0.037698835 0.00856261 -0.054000586 0.06531403
000370 16 fe 43 3d ca 22 6a 3d 77 b1 1e 3d 7f 77 a2 3d
       0.047849737 0.057162084 0.038743462 0.07932948
000380 95 64 0a 3d ff de 61 bd df 9a a6 bc 9c 9d 8b 3d
       0.03378733 -0.055144306 -0.02033752 0.06817171
000390 b6 e3 23 3d 0c ef 88 bd 7c 1d 8d 3d aa 58 52 bd
       0.040012084 -0.066862196 0.06890389 -0.051354088
0003a0 e8 c0 ce 3d d9 c2 23 bd 71 6b 22 3d 48 2e 42 3d
       0.10095388 -0.039980743 0.039653245 0.04740742
0003b0 2f bc 95 3d 35 fe 16 bc 1d a1 28 3c fc e4 00 3b
       0.07311284 -0.009215881 0.010292319 0.0019667735
0003c0 f2 82 8d bd 42 05 09 3d b6 83 97 bb 88 78 a4 bd
       -0.069097415 0.03345228 -0.0046238555 -0.08030802
0003d0 bd 41 92 bd 17 31 6a bd 0f 71 81 3d 3d 6a 92 3d
       -0.07141445 -0.057175722 0.06320392 0.071491696
0003e0 f7 7c 9d 3d d7 d1 ba bd e6 11 1d bd 28 a4 af 3d
       0.07689851 -0.09122055 -0.038347147 0.08576232
0003f0 cb c3 c6 bd 39 35 5b 3c 5b 12 a4 bd f4 fa 96 bd
       -0.09705313 0.0133793885 -0.080113135 -0.07372084

lstm.weight_hh_l1 f4 [512, 128]
000000 ce 16 80 bd 0a 6e 8f 3d 2a da 81 bd e8 bd fd bc
       -0.0625435 0.0700341 -0.063404396 -0.030974343
000010 9e c9 86 bd a9 87 c4 3d 17 67 18 bc 05 34 57 bc
       -0.06581424 0.095961876 -0.009301922 -0.013134961
000020 d7 94 ce bc 56 e8 a5 3c f0 f7 e7 bc 4a db 43 3d
       -0.025217457 0.020252388 -0.028316468 0.047816552
000030 3b 45 8e bd 14 6a 7a 3d c6 e7 aa 3d 90 d8 07 3d
       -0.069467984 0.06113632 0.083449885 0.033165514
000040 4b 3b b8 3d 3e fa b1 bc a3 3d 37 bc b9 d6 37 3d
       0.08995684 -0.02172577 -0.011184129 0.04488251
000050 9a 31 77 3c b6 81 80 bd ba 4f 76 bd 2a a3 b7 3d
       0.0150875095 -0.062747404 -0.060134627 0.08966668
000060 57 c2 08 bc c9 97 4a bd 6d 49 2a 3d 84 28 cc 3c
       -0.0083471155 -0.04946116 0.04157393 0.024921663
000070 8a 8c 89 ba ad 0b 22 bd 4a 3a 76 bd c5 b7 7e bd
       -0.0010494154 -0.039561916 -0.060114183 -0.062186975
000080 4c c5 93 bc 3e 00 80 bc ac 25 35 bd e5 69 96 bd
       -0.018038414 -0.015625115 -0.04422538 -0.073444165
000090 22 ad 55 3d ee 33 a1 3d 67 2e ba 3c c0 30 35 3d
       0.052167065 0.07871233 0.022727204 0.044235945
0000a0 15 ab 93 bd 0e 2d 8d 3d 82 af 92 bd ae fb c1 3b
       -0.07210366 0.06893359 -0.07162382 0.005919895
0000b0 74 cf 8f bd f6 b8 dd 3c b2 0c 9d bd 7e c2 2f bd
       -0.070219904 0.027065735 -0.07668437 -0.04291009
0000c0 7a 26 a8 bc 8f 9d 5b bd f1 68 c2 3d 3f 63 e1 3b
       -0.02052616 -0.053617056 0.09492672 0.006878286
0000d0 b2 b6 80 bd db 6c 8f 3c 83 99 af 3c e8 1e 02 bc
       -0.06284846 0.017507961 0.021435505 -0.007941939
0000e0 d8 80 8e 3d 51 f3 f0 bc de 4a 94 3d 93 98 a8 3d
       0.06958169 -0.029412897 0.07240842 0.08232226
0000f0 00 dc 70 3d f1 e7 a5 bb df 96 36 bd 2d 08 82 bd
       0.05880356 -0.00506305 -0.044577476 -0.06349216
000100 41 f3 5d 3d 93 da b7 3d 88 61 cf 3c 6a 84 df bc
       0.054187063 0.089772366 0.025315061 -0.02728482
000110 5a 1e 5c bc 2b 08 32 3d 2a 7b 62 bd 72 84 77 bd
       -0.013434971 0.04346482 -0.05529324 -0.060429044
000120 39 98 8f bc 00 0e 1f 3c 70 03 d7 bb 22 1d ec bc
       -0.01752864 0.009707928 -0.006561689 -0.028822485
000130 37 b2 5d 3d 26 be 62 bc f0 18 fe bc 10 61 ff 3c
       0.054125037 -0.01383928 -0.03101775 0.031174213
000140 6e de 62 3c cc a5 95 bd 65 b7 3f 3d 72 54 15 3d
       0.013846977 -0.07307014 0.046805758 0.036457486
000150 1d 04 8f 3d 56 90 02 bd 9f b5 04 bd 9a d3 a4 bc
       0.069832064 -0.03187593 -0.03239977 -0.02012043
000160 3b 9d 5c 3d 9a 2f 29 3d 04 b8 76 3d dc 38 67 3d
       0.053860884 0.041305162 0.060234085 0.05645071
000170 bd 3d 8a 3d 6e 30 3c bd 8e fe 88 bd ed aa b0 bd
       0.06750057 -0.045944624 -0.066891775 -0.086263515
000180 8c d9 57 3d 7a 26 ef 3b a2 3a 32 bd 95 a6 19 3d
       0.052697703 0.007298288 -0.043512948 0.03751238
000190 73 55 31 3d 49 1a 82 bd 8c 9d 91 bd e1 ee 0d bc
       0.04329438 -0.0635267 -0.07110128 -0.00866291
0001a0 9f b5 db bc 6e 79 8a 3d a5 5f a0 bc 90 93 8f 3c
       -0.026820002 0.06761442 -0.019576857 0.017526418
0001b0 05 80 18 3d 39 99 d5 bc fb 3e 25 bd 25 14 e9 bc
       0.037231464 -0.026074039 -0.040343266 -0.028451988
0001c0 99 dd 8e 3d 54 da 7a bd fb d6 04 bd 95 0b b9 bd
       0.0697586 -0.06124337 -0.032431584 -0.09035412
0001d0 cc ee 8a bd cf ab 89 3d 41 4e 84 bd af 6f f8 bc
       -0.06783828 0.06722223 -0.06460238 -0.030326692
0001e0 1e 93 7a 3d 3b a1 88 3c 9f 75 2e 3d 01 0f 73 bd
       0.061175458 0.016678443 0.04259264 -0.05934048
0001f0 a5 6e 43 3d a8 7e da bc 7e e8 66 bd a3 aa 29 bd
       0.04771294 -0.026671723 -0.056374066 -0.041422497
000200 c5 7a d9 bc cc 73 4e bd e8 44 96 bc ac 57 30 bd
       -0.026547799 -0.0504034 -0.018343404 -0.04305236
000210 64 dc ae bb fe bc a9 bc d7 fc 8c bd 1f 9d 99 3d
       -0.005336331 -0.020720001 -0.06884163 0.075006716
000220 e0 57 c7 3b 16 c5 3b bd 0b 7d ce 3c 41 33 96 bc
       0.0060834736 -0.045842253 0.02520611 -0.018334987
000230 47 c1 a1 3d 41 4d 90 3d 6b 56 50 bd 95 cc 9d bd
       0.07898193 0.07045985 -0.050863665 -0.077050366
000240 96 2a 2c bd c7 2d c6 3b 18 b2 23 3d 4d 0b e4 bc
       -0.0420328 0.0060479376 0.039964765 -0.02783742
000250 5a ba b0 bd 6e e6 47 3d 13 b2 24 bc a1 6f cd 3c
       -0.08629294 0.04880374 -0.010052222 0.025077643
000260 2b d4 19 3c 1f d7 9e 3d 2f 76 9f bd 14 fa 99 bb
       0.009388964 0.07755875 -0.077862136 -0.004699001
000270 86 c2 70 bc c3 9c b1 bd a3 e1 3f bd d6 aa 64 bd
       -0.0146948155 -0.08672478 -0.046846043 -0.055826984
000280 7b 29 a3 bc a3 1f b5 3d 4e 01 a7 3d 84 1d 71 bc
       -0.01991724 0.08843925 0.08154546 -0.01471651
000290 eb a9 8f 3c 52 5c 9e 3d 19 2e 4b bd 21 f1 d2 bc
       0.017537078 0.077324525 -0.04960451 -0.025749745
0002a0 d3 94 77 3d 49 42 8c 3d 24 01 b8 3c d0 e0 0b 3d
       0.060444664 0.068485804 0.022461481 0.034149945
0002b0 52 43 86 3d 4e ed 80 bd 33 70 89 3c 35 50 c3 3c
       0.06555809 -0.06295262 0.016777134 0.023841957
0002c0 67 5d 26 3d 77 ff e9 3b c9 60 96 3d 25 75 3a 3d
       0.04061642 0.0071410495 0.07342679 0.045521874
0002d0 c1 cc af bd 27 06 e4 3c 90 eb ad 3c 71 fe e0 3c
       -0.085839756 0.027834965 0.021230489 0.027465077
0002e0 a5 9e 46 bd af 5e ce bb 56 94 39 bd e4 48 87 bc
       -0.04849114 -0.0062979083 -0.04530748 -0.01651425
0002f0 1d bc 5a 3d 71 cd cf 3c e2 1a 71 bd b5 d0 6f bd
       0.053402055 0.025366517 -0.058863528 -0.058548648
000300 f2 db 5e 3d 96 34 7a bb 1c 14 07 39 be d1 72 bd
       0.054408975 -0.0038178316 0.00012882095 -0.059282057
000310 cd e9 9c bd 00 c6 a6 3d 7d 9b f3 3b 21 77 82 bd
       -0.076617815 0.08143234 0.007434307 -0.06370378
000320 fa 06 fc bc 5c 3b 61 bd fc c3 21 bd 85 d2 19 3c
       -0.030765045 -0.05498825 -0.039493546 0.009388571
000330 a5 ff bd ba 92 f7 9b bd 17 99 a1 3d f4 4d 57 3c
       -0.0014495744 -0.0761558 0.07890528 0.013141144
000340 6f ef b2 bd 08 ae 43 bd 3c 2c 19 bd 95 81 6f bd
       -0.087370746 -0.04777339 -0.0373957 -0.05847319
000350 ab 19 32 3d 8b d4 a2 bc ca 1a b1 ba 61 d0 41 3d
       0.04348151 -0.019876739 -0.0013512012 0.047317866
000360 ad ba 6c 3d 22 db 96 bd 23 b4 9c bd 08 5c 5a bb
       0.057795215 -0.07366015 -0.07651546 -0.0033319015
000370 ff c4 93 3d 78 4d 97 3c 0e d7 01 bd f2 f8 26 3d
       0.072153084 0.018469557 -0.031699233 0.040764757
000380 2e 01 3a bd 0a 46 8a bc 1f 23 02 3b 9b 3d 19 3d
       -0.04541128 -0.0168791 0.001985736 0.037412267
000390 4f 30 2d bd a2 c4 1f bd bf 84 a1 bd 89 25 7c 3d
       -0.0422824 -0.039005883 -0.078866474 0.061559234
0003a0 ff 8b 32 3d e9 46 84 bc 3d eb b4 bd c4 01 0e 3d
       0.043590542 -0.016147094 -0.08833931 0.034669653
0003b0 fa f1 56 bd 77 01 67 bd b1 aa 87 3c 6b 4a 96 3d
       -0.05247686 -0.05639788 0.016560884 0.07338413
0003c0 13 f0 b4 bd 46 cf e6 3a a4 ac 38 bd 4b df 4f 3d
       -0.08834853 0.001760938 -0.045086518 0.05075006
0003d0 91 89 90 bd ce 31 92 3d c1 d6 1e bd d9 31 8a 3d
       -0.07057489 0.07138406 -0.038779024 0.06747789
0003e0 91 2f 89 bd 73 bd 88 3b a2 a3 ca 3c 6a eb 49 bd
       -0.06698526 0.0041729747 0.02473623 -0.049296774
0003f0 c5 e6 8f bc 5b 2e 8c 3d 44 01 07 bd 1c b7 3a 3d
       -0.017566094 0.06844779 -0.03296019 0.045584783

lstm.bias_ih_l1 f4 [512]
000000 36 bc c4 3d cb 2e 5a 3d ce 3c fa 3a a1 4d a2 bb
       0.09606211 0.05326728 0.0019091608 -0.0049531017
000010 07 60 d7 3b c3 4c d2 bc 61 9e 2b bd 90 bd 08 3d
       0.0065727266 -0.025671368 -0.04189909 0.033383906
000020 f0 e3 83 3d fa 9a ce 3d c0 b1 2c bd 4c e8 64 3d
       0.0643996 0.10088153 -0.042161703 0.055885598
000030 84 fd b7 bc f5 f2 6a bd 17 fb 5b bc 6b ea 2c 3d
       -0.022459753 -0.057360608 -0.013426564 0.042215746
000040 1a 67 65 3d e9 6f f4 bc 46 95 bf bd 5e 05 81 3b
       0.05600653 -0.02983852 -0.093546435 0.0039374074
000050 45 b0 84 bd cc 32 ef ba 2f 1b 2a 3d 23 69 e6 3b
       -0.06478933 -0.0018249392 0.04152983 0.0070315762
000060 26 f8 66 bd ca a7 32 bd 80 80 0a 3d be a4 f3 3c
       -0.056388997 -0.043617047 0.033813953 0.029741641
000070 e8 1b 47 3d 36 18 8f bc 1f ab a7 bd 59 74 f5 bc
       0.048610598 -0.0174676 -0.08186936 -0.029962705
000080 19 e9 15 3d 26 78 c1 3c 9b 75 a7 3d 5b 6d ab 3d
       0.036599252 0.023616862 0.08176728 0.08370467
000090 af 96 93 3d c5 fd a9 3d 70 7b 87 bd 0d 3c 05 bd
       0.07206475 0.08300356 -0.06615341 -0.032527972
0000a0 61 c0 4e bd 90 2c fe bc f4 87 e9 3c b5 41 2c 3d
       -0.050476436 -0.031027108 0.02850721 0.04205485
0000b0 53 0a 18 3d 97 65 a1 3c 17 1f 94 3d 13 09 83 bd
       0.03711922 0.019701762 0.072324924 -0.06398215
0000c0 c9 7e 98 3c d8 9a 99 bc f1 94 ae 3d f1 1c a9 3d
       0.018615143 -0.018750593 0.08524502 0.08257473
0000d0 d9 29 4f bd bc 6e 0f bd ee b9 2a 3d 57 cd ea bc
       -0.05057702 -0.035017714 0.041681223 -0.028662367
0000e0 c0 dd 8d 3d ca 1e c2 3c 51 31 73 3d d4 93 05 3d
       0.06927061 0.023696322 0.059373204 0.032611683
0000f0 31 ef 9e 3c 31 1b a5 3d 14 78 92 3d 6c 74 b2 3d
       0.019401165 0.08061827 0.07151809 0.08713612
000100 7c 4e 0f 3d 3c 82 fc bc 86 0a 72 3c f2 72 83 3d
       0.034986958 -0.03082382 0.014773017 0.064184085
000110 31 8a 91 bd a9 10 2f 3d 52 f3 2e 3d 49 d0 99 3d
       -0.07106436 0.042740498 0.042712517 0.0751043
000120 a4 55 15 3d 56 b5 87 3d 6c 4b d4 3c a2 41 9a bd
       0.036458626 0.06626384 0.02591487 -0.0753205
000130 04 c9 c9 bc da 5a 03 3d 20 73 d7 bc 06 9d b8 3d
       -0.024631985 0.032069065 -0.026300013 0.09014325
000140 4c dd 7f bc 52 9a a9 3d b3 45 61 3d c3 7c a7 bd
       -0.015616726 0.082813874 0.05499811 -0.08178093
000150 53 90 e0 bc 41 0c 8a bd 43 c4 cc bc 2a 26 b3 3c
       -0.02741257 -0.067406185 -0.024995929 0.021868784
000160 43 bb 4d bd 48 99 a7 3b 6b 67 94 bd 05 5b 59 3d
       -0.050227415 0.005114708 -0.07246288 0.05306532
000170 e9 e0 a2 bc 49 bc 7f bd 4f 63 fc 3c 70 09 67 3c
       -0.019882636 -0.062435422 0.030809073 0.014101371
000180 d1 13 c5 bd 44 e4 8b bc 52 f0 9d bd fa 9a 4d 3d
       -0.0962292 -0.017076619 -0.07711853 0.050196625
000190 fd 3e 15 3c 9a 41 95 3c 5e a7 d4 3a 01 63 9a bd
       0.009109256 0.018219758 0.0016224196 -0.07538415
0001a0 88 f8 20 3c d8 a0 c9 bc 34 3d 3f bd 5b 46 21 bc
       0.0098248795 -0.02461283 -0.046689227 -0.009843434
0001b0 06 4d 37 3c 6a f9 0e bd 22 5c aa 3d 61 ca b3 bd
       0.011187797 -0.03490583 0.08318354 -0.08778835
0001c0 6b 45 9c 3c 0d 3a 88 3c a3 be bf 3c 1d 7d 8a ba
       0.01907607 0.016629243 0.023406332 -0.0010565851
0001d0 09 fd 70 bd f9 33 54 3d d6 19 63 bd b8 9b bc 3c
       -0.058835063 0.051807377 -0.05544456 0.023023471
0001e0 60 6a c6 3c 84 ae 36 bd d1 5a b2 bc df f2 16 3c
       0.024220645 -0.044600025 -0.02177182 0.009213178
0001f0 0a 12 c2 bc 2e 04 92 bd 54 94 a7 3d fc ad a5 bd
       -0.023690242 -0.071297035 0.08182588 -0.080898255
000200 b2 c9 41 3b 22 74 86 bd f0 53 54 3d d6 07 17 3d
       0.0029569683 -0.06565119 0.05183786 0.036872707
000210 11 48 74 bd f1 a6 b0 3d 1f 46 66 bd 10 b2 1e bd
       -0.05963904 0.086255915 -0.056219216 -0.038744032
000220 94 32 14 3c 62 d4 30 bb 34 c1 2a 3d db ef c4 3d
       0.009045262 -0.0026982059 0.04168816 0.09616061
000230 b2 c1 62 bc 6c 53 5b bd a6 57 1f 3d 59 67 3a bd
       -0.013840126 -0.053546354 0.038901947 -0.045508716
000240 64 ee 0b 3d a9 55 3b bc da 53 34 3d 58 e7 22 3d
       0.034162894 -0.011433997 0.04402528 0.039771408
000250 d6 7a 7b 3c 04 26 9a bd ee 94 66 3d cf f4 8c 3d
       0.015349111 -0.07526782 0.056294374 0.06882631
000260 e1 3b bf bc e4 ae 81 bd bf 2c 7c 3d f6 36 87 bd
       -0.023343982 -0.06332186 0.06156611 -0.0660228
000270 a2 13 82 bc 35 f3 97 3c c6 dc e1 bc db 62 2f bd
       -0.015878502 0.018548587 -0.027571093 -0.042818885
000280 dc 6a be bd 44 df b7 3d 12 51 57 3d e9 1d fb bc
       -0.092977256 0.089781314 0.05256755 -0.03065391
000290 bf a9 ab bc 85 f1 9f 3c 3d 7f a4 bd ee 25 02 3d
       -0.020954965 0.019524345 -0.08032081 0.031774454
0002a0 22 dd d2 3c fe eb 5c bc db 50 47 3d 38 e1 cc bc
       0.02574021 -0.013483999 0.048661094 -0.025009736
0002b0 d4 21 b3 3d 38 bb 94 3d d2 c5 90 3d 36 8e 87 bd
       0.087466866 0.07262272 0.07068981 -0.066189215
0002c0 52 7a 5e bd 0b 4d ab 3d ec be 81 3c 4a 8e 96 3d
       -0.054315872 0.08364304 0.015838109 0.07351358
0002d0 9a 42 d5 3c 6c c3 96 bd 52 3c a3 3d 6b ba 0e 3d
       0.026032735 -0.073614925 0.079704896 0.03484575
0002e0 8f 3d 83 bc 63 ba aa 3c 1d de eb 3c ed 01 56 3c
       -0.016020564 0.02084083 0.028792435 0.013061983
0002f0 86 ca 62 bc ff 39 8c bd 2e 89 00 bc 0f 2c 4d bd
       -0.013842231 -0.068469994 -0.007845206 -0.050090846
000300 ff 23 f9 bc 17 fd 04 bc a9 9b 4f bd af 77 89 3d
       -0.030412672 -0.008116982 -0.05068556 0.06712281
000310 2f 92 8a 3c b4 54 18 3c 42 5e 4e 3d a2 8a 90 bd
       0.016915409 0.009297539 0.05038286 -0.07057692
000320 1a 5f 97 bd ae f8 81 3d c7 6e 86 3d 12 ff 1c bd
       -0.07391186 0.0634626 0.06564098 -0.03832919
000330 f6 b7 3d bd 90 14 79 bd 19 45 99 3c c0 96 6b bd
       -0.046318017 -0.060810626 0.018709706 -0.057516813
000340 5a 15 b3 3d 47 92 72 3d a0 7d 67 3d 7e 15 9b bd
       0.08744307 0.059221532 0.05651629 -0.07572459
000350 70 9f d4 38 23 e9 ab 3d bb ce 8d bd a8 1a 96 bd
       0.00010138645 0.08394077 -0.06924196 -0.07329303
000360 8b 60 b6 bd dd 32 86 3d bf d7 d5 3c 91 37 a9 bc
       -0.08905133 0.0655267 0.026103852 -0.020656379
000370 ba 93 63 bb 99 2b 89 bd 56 31 7e bd d0 2a b3 bc
       -0.0034725503 -0.06697769 -0.06205877 -0.021871
000380 21 64 86 3c ec 3d ff bc f0 22 35 bd 22 69 2b bd
       0.016405167 -0.031157456 -0.044222772 -0.04184831
000390 40 0a a0 ba e6 76 82 3c 6e d9 8c bd 22 2e 2c 3d
       -0.0012210086 0.015925836 -0.06877409 0.042036183
0003a0 6a 8d ca 3c a7 3b cd bc 1c 42 38 bc 0d 29 8f 3d
       0.024725635 -0.025052859 -0.01124623 0.06990252
0003b0 4d a9 38 bd 1b 88 1b 3b 50 0b d6 b9 99 76 94 bd
       -0.045083333 0.0023732248 -0.0004082569 -0.07249183
0003c0 56 f2 36 3c d3 c7 20 bd 9b b0 dd bc b6 15 36 3d
       0.011166176 -0.039253067 -0.027061751 0.0444543
0003d0 a8 d2 a5 bd ba 25 23 bd 8d f1 d0 3c 9a 60 42 3d
       -0.0809682 -0.0398309 0.025505805 0.047455408
0003e0 ee 0c 6d 3d 42 64 90 3c ce 0e 8e 3d d8 91 d7 3c
       0.05787366 0.017625932 0.069364175 0.02631466
0003f0 e4 e1 9c ba 93 db 82 3d 27 a9 1a bd 64 70 a5 bd
       -0.0011969176 0.06389537 -0.037758972 -0.080780774
